model1d.ckpt (torch_old, 132879 bytes, 11 tensors)

convnet.0.weight f4 [32, 1, 3]
0	0xbeee3a1f	-0.46528718
1	0x3da78f09	0.08181579
2	0xbecf487c	-0.4048499
3	0xbee1b565	-0.44083706
4	0xbe040fd9	-0.1289667
5	0x3ede709d	0.43445292
6	0xbeca73ce	-0.39541477
7	0xbe6ccca9	-0.23124947
8	0x3dbf6354	0.09345117
9	0xbe3a880f	-0.18215965
10	0x3e94c065	0.29053035
11	0xbef938d9	-0.48676184
12	0xbf013a05	-0.50479156
13	0xbe73e235	-0.2381676
14	0x3e8e8626	0.27836722
15	0x3f0ec209	0.55764824
16	0x3de3785e	0.111069426
17	0x3eaeaa94	0.34114516
18	0xbeebcd03	-0.4605485
19	0xbe8c40e8	-0.2739327
20	0x3e3afdc9	0.18260874
21	0xbedd72a2	-0.4325152
22	0xbf07b46a	-0.53009665
23	0xbe91bf8e	-0.28466457
24	0xbef95e6a	-0.48704845
25	0x3ef11c4b	0.47091898
26	0xbedf20df	-0.43579766
27	0xbe591829	-0.21200623
28	0x3e99f873	0.30072364
29	0x3efd7245	0.49501243
30	0xbf0e09f1	-0.5548392
31	0x3d131120	0.035905004
32	0x3f1099bc	0.5648458
33	0x3e21d717	0.15804707
34	0x3cbb2bb5	0.02284799
35	0xbe8f5439	-0.27993944
36	0xbdab2eee	-0.083585605
37	0xbd3a3db5	-0.045469005
38	0x3f0ebdf4	0.55758595
39	0xbe805987	-0.25068304
40	0x3eb02516	0.34403294
41	0x3e8ac005	0.27099624
42	0x3d9be82a	0.07612641
43	0xbca8f69f	-0.02062541
44	0xbf04af71	-0.518302
45	0xbea187d0	-0.3154893
46	0xbdd55b0f	-0.10417759
47	0xbf08b396	-0.53399026
48	0x3d553be0	0.052059054
49	0x3ec265aa	0.3796819
50	0xbecf1651	-0.40446714
51	0x3e714026	0.23559627
52	0xbec5aa3a	-0.38606435
53	0xbeab6b36	-0.33480233
54	0x3d0e423a	0.034731127
55	0xbea4b659	-0.3217037
56	0x3d015ece	0.031584553
57	0x3ec121a5	0.3772098
58	0x3e30aca8	0.17253363
59	0x3eef7af8	0.46773505
60	0x3ee3649b	0.44412693
61	0xbdd961d5	-0.10614363
62	0x3edadeec	0.427482
63	0xbece0ce2	-0.40244204
64	0x3ed66394	0.41872847
65	0xbf123fda	-0.5712868
66	0xbe2fb13b	-0.17157452
67	0xbd783867	-0.060600664
68	0x3d952646	0.07282691
69	0x3ef75c3e	0.48312563
70	0xbeccc99e	-0.39997572
71	0xbdcd795d	-0.10032914
72	0x3f0c18ff	0.5472564
73	0x3eacdfd0	0.33764505
74	0xbdaf808e	-0.08569442
75	0xbe911dee	-0.28343147
76	0x3f075ad3	0.5287296
77	0xbf028609	-0.5098577
78	0xbe93c9c1	-0.28864864
79	0xbef10ad7	-0.47078583
80	0xbea7470d	-0.32671395
81	0x3cac4596	0.021029275
82	0xbeda43f2	-0.42629963
83	0x3e93b28e	0.28847164
84	0xbe91563f	-0.28386113
85	0xbed446b6	-0.41460198
86	0xbd2f12c2	-0.0427425
87	0x3eba0d76	0.36338395
88	0x3f0e64fb	0.55622834
89	0x3ee0d463	0.43912038
90	0x3d877f1c	0.06616041
91	0xbe903ce9	-0.2817147
92	0xbe94fd83	-0.29099664
93	0xbdac6d0c	-0.084192365
94	0xbebd1491	-0.36929753
95	0xbed15681	-0.4088631

convnet.0.bias f4 [32]
0	0xbe136089	-0.14392294
1	0xbeeefb45	-0.46676078
2	0xbe0b7174	-0.13617498
3	0xbe50b66b	-0.20382087
4	0x3f10cf6b	0.56566495
5	0xbec65ed7	-0.38744232
6	0xbf04495c	-0.5167444
7	0x3e696fd6	0.22796568
8	0x3eed1d4b	0.4631141
9	0xbf0e5e2a	-0.5561243
10	0xbebbf3f4	-0.3670956
11	0x3ed77da3	0.4208804
12	0xbef90d38	-0.48642898
13	0xbac6649f	-0.0015136189
14	0x3e3d28dd	0.1847262
15	0xbf16f3bb	-0.58965653
16	0x3f10925d	0.5647333
17	0xbecd54e8	-0.4010384
18	0x3eef9eec	0.46800935
19	0x3ce8b006	0.028404247
20	0x3d95ca33	0.07313957
21	0x3f150a6c	0.5821903
22	0x3ecf7c95	0.40524736
23	0xbec82d33	-0.39096984
24	0x3ed670f4	0.4188305
25	0xbf0e30dc	-0.55543303
26	0x3f157b2e	0.5839108
27	0x3f14ba37	0.5809664
28	0x3e26dbc2	0.16294768
29	0x3e92b8ea	0.28656703
30	0x3e400986	0.18753633
31	0xbdccf1b4	-0.10007039

convnet.1.weight f4 [16, 32, 5]
0	0xbc831c66	-0.016004752
1	0xbd845b64	-0.06462744
2	0xbd9ec608	-0.07752615
3	0xbd1807f9	-0.03711698
4	0xbd21ff8a	-0.03955034
5	0xbc95dedf	-0.01829475
6	0xbcacc252	-0.021088753
7	0x3d4f3997	0.05059203
8	0xbdaca9d9	-0.08430833
9	0x3d77d095	0.060501654
10	0x3d0eb9cf	0.03484517
11	0xbd0cab9c	-0.034343347
12	0x3d369377	0.044574227
13	0xbd03140d	-0.032001544
14	0x3d391043	0.045181524
15	0x3d1b4d6a	0.037915625
16	0xbd80f799	-0.062972255
17	0x3d82dc4f	0.06389677
18	0xbd7bb66b	-0.061453264
19	0xbc82f89e	-0.01598769
20	0xbd0387c5	-0.0321119
21	0x3cf10f79	0.029426323
22	0xbc68e4e4	-0.014214728
23	0x3c76e4fe	0.015069244
24	0x3d710dff	0.05885124
25	0x3cf70bd8	0.030157015
26	0x3d854898	0.06507987
27	0x3d814ec6	0.06313853
28	0xbd6af043	-0.057358038
29	0x3d08d0be	0.033402197
30	0xbdb8646c	-0.09003529
31	0xbd6636c0	-0.056204557
32	0xbca71de5	-0.020399997
33	0x3d465fe2	0.048431285
34	0xbc280932	-0.010256099
35	0x3d5f81de	0.05456721
36	0xbd2feb24	-0.042948857
37	0x3d3570da	0.044297077
38	0xbbf2f640	-0.007414609
39	0x3c5024c2	0.012704076
40	0xbd100890	-0.035164416
41	0xbbdd64e3	-0.0067564114
42	0xbd5a52c9	-0.053301606
43	0x3bcb7360	0.006208822
44	0x3b063214	0.0020476626
45	0x3cc86ef1	0.024466963
46	0xbd780bf7	-0.060558286
47	0xbd96150c	-0.07328233
48	0xbd8ff11f	-0.07028412
49	0x3bdddf18	0.0067709796
50	0xbdbe43b6	-0.092902586
51	0xbd2493db	-0.04018007
52	0xbdb457b5	-0.08805791
53	0x3d6bb0f3	0.0575418
54	0x3c8be8e7	0.01707883
55	0x3d1ea9dd	0.038736213
56	0x3c9b5e05	0.01896573
57	0x3da7be56	0.081906006
58	0xbcd9002f	-0.026489345
59	0xbc27aecc	-0.010234546
60	0xbd526bf1	-0.051372472
61	0x3d3f4b53	0.046702694
62	0x3d5e7644	0.054312006
63	0x3be96f97	0.0071238982
64	0xbd063a01	-0.03277016
65	0xbd50e1e6	-0.050996684
66	0xbb88ad7c	-0.0041710716
67	0x3d9b53c2	0.07584335
68	0xbd910a81	-0.070820816
69	0xbc84936d	-0.01618358
70	0xbd2d9039	-0.04237387
71	0x3c74448d	0.014908922
72	0x3cce5ae0	0.025189817
73	0xbbc50f39	-0.0060137776
74	0x3d32fdde	0.043699138
75	0xbd1e412b	-0.038636368
76	0xbd5a69e1	-0.05332363
77	0xbd2dcfee	-0.042434625
78	0xbd08803c	-0.03332542
79	0xbd744d70	-0.059644163
80	0x3b6fd29b	0.0036594037
81	0xbd40708a	-0.046982326
82	0x3dacb8cf	0.08433687
83	0xbc95e7f9	-0.01829909
84	0x3c8ad185	0.01694561
85	0x3da0a817	0.078445606
86	0xbd8dcc26	-0.06923704
87	0x3d831965	0.06401328
88	0xbd858a70	-0.065205455
89	0x3d8276cd	0.06370316
90	0xbc8d9ce7	-0.01728673
91	0x3ca6fb17	0.0203834
92	0x3d8c5375	0.06851856
93	0xbc4cae04	-0.01249266
94	0xbd6966a0	-0.056982636
95	0x3d894055	0.067017235
96	0x3ca3fd5d	0.020018274
97	0xbbf03133	-0.0073300838
98	0x3c9a541a	0.01883893
99	0x3da8af49	0.08236558
100	0x3d0d8a3e	0.034555666
101	0x3c7b0cda	0.015322888
102	0xbc053fb6	-0.008132866
103	0xba57d271	-0.00082329573
104	0xbcf0ae99	-0.02938013
105	0xbd7bf2fa	-0.061511017
106	0x3d08755f	0.03331506
107	0x3d1162ff	0.0354948
108	0xbcb9785f	-0.022640405
109	0x3b3f6490	0.0029204227
110	0x3d31997b	0.04335926
111	0xbc340f00	-0.010989904
112	0xbd14050b	-0.03613762
113	0xbd3a2b34	-0.045451358
114	0x3d6766db	0.056494575
115	0x3da0e634	0.07856408
116	0x3c5e7b33	0.013579178
117	0x3d49ad76	0.04923769
118	0xbd15be02	-0.03655816
119	0x3c856971	0.01628563
120	0xbaad84d3	-0.0013238437
121	0xbd841592	-0.06449427
122	0x3d08182d	0.03322618
123	0xbcb8246f	-0.02247831
124	0xbd3193fa	-0.043354012
125	0x3d2a9407	0.041645076
126	0xbdb84860	-0.089981794
127	0xbb5a7389	-0.0033333024
128	0xbd29fa39	-0.041498397
129	0xbc7738ee	-0.015089257
130	0x3d0d69cd	0.034524728
131	0x3d849f6e	0.06475721
132	0xbd705f65	-0.058684725
133	0xbd6cb85c	-0.057793006
134	0x3d757641	0.05992723
135	0x3d423e16	0.04742249
136	0x3dacea94	0.0844318
137	0x3df3554b	0.11881503
138	0x3dd83b76	0.10558216
139	0x3d8bd2ff	0.06827354
140	0xbd3db1f3	-0.046312284
141	0x3d8fe32b	0.07025751
142	0x3d8d6b6c	0.06905255
143	0x3d6bb524	0.057545796
144	0x3c8f9ab4	0.017529823
145	0xbd6e9ed7	-0.05825695
146	0x3ceef600	0.029170036
147	0x3d325565	0.04353847
148	0x3d01c578	0.03168246
149	0xbd0b7ac4	-0.034052625
150	0xbd4a4eea	-0.049391665
151	0xbce3ebec	-0.027822457
152	0xbc6ef347	-0.014584369
153	0xbd256a11	-0.040384356
154	0x3d631e62	0.055448897
155	0x3d8ccb33	0.06874695
156	0x3cf0833c	0.029359452
157	0xbd136f2f	-0.035994705
158	0x3d39eea4	0.0453936
159	0xbd44ead4	-0.048075512
160	0x3da68db3	0.08132496
161	0x3d96cd68	0.07363397
162	0x3d27e8dc	0.040993556
163	0xbd885ea9	-0.0665868
164	0xbc66ea54	-0.014093954
165	0xbaf40a91	-0.0018618872
166	0x3cc4ab99	0.024007605
167	0xbc6a0ff7	-0.014286033
168	0x3cc96c09	0.024587648
169	0xb9446647	-0.00018730118
170	0xbcf7425a	-0.030183006
171	0xbd84310c	-0.064546674
172	0xbd65966f	-0.056051668
173	0x3cefbed5	0.0292658
174	0x3d8d9c48	0.06914574
175	0x3d5836f4	0.052786782
176	0xbd23aad5	-0.03995784
177	0xbcbc3626	-0.022975039
178	0x3a2e49b9	0.0006648559
179	0x3d604667	0.05475464
180	0x3d07d80b	0.03316502
181	0x3d3b0b4c	0.04566507
182	0xbaba58cd	-0.0014217139
183	0x3da02c96	0.07821004
184	0xbcd16b3e	-0.025563832
185	0x3cca694e	0.024708416
186	0x3c6dbf64	0.014510963
187	0x3d73eeef	0.059554037
188	0x3cd697d0	0.026195437
189	0xbd509194	-0.050920084
190	0x3d61a137	0.055085387
191	0x3d71cf3a	0.059035517
192	0xbd0f2f4a	-0.034957208
193	0xbcd47efc	-0.025939457
194	0xbced995d	-0.029003793
195	0x3ba94ffa	0.0051670047
196	0x3d49b6e8	0.0492467
197	0xbd3c229c	-0.045931444
198	0x3d351069	0.044205103
199	0xbcd2b435	-0.025720695
200	0xbcec0d07	-0.028814806
201	0xbce6aa8a	-0.028157491
202	0xbd75a102	-0.059968002
203	0x3cfb3e9b	0.030669501
204	0x3cab9504	0.02094508
205	0x3d882a2a	0.06648667
206	0xbd2710cd	-0.040787507
207	0xbd41f341	-0.047351126
208	0x3cc7bc33	0.024381733
209	0xbd540a5f	-0.051767703
210	0x3df899bb	0.12138697
211	0x3ce37bd5	0.027769009
212	0x3b10ac3e	0.002207532
213	0x3d3304fa	0.043705918
214	0xbd0653d5	-0.032794792
215	0x3cda0aac	0.026616417
216	0xbda7889e	-0.081803545
217	0xbdcf52a1	-0.10123182
218	0x3d597e2c	0.053098843
219	0xbd66817e	-0.056275837
220	0x3d6006af	0.054693874
221	0x3d930b14	0.07179847
222	0xbd2946e5	-0.041327376
223	0x3d1ba78b	0.03800158
224	0x3d3f3f4b	0.04669122
225	0xbd2f45af	-0.042791065
226	0xbd9f769d	-0.077862956
227	0xbd6ea812	-0.058265753
228	0x3d7b615f	0.061372157
229	0x3cb9497a	0.022618044
230	0xbd359649	-0.044332776
231	0xbd1e8ff5	-0.038711507
232	0xbd15cf84	-0.036574855
233	0xbd96f940	-0.073717594
234	0x3d5f9fb2	0.054595657
235	0x3b30bc66	0.0026967763
236	0x3d898152	0.06714119
237	0xbca47324	-0.020074435
238	0x3d970800	0.07374573
239	0x3d525f7f	0.051360603
240	0x3cb8b603	0.022547727
241	0xbd7eb159	-0.06218085
242	0xbd1ecfc9	-0.038772378
243	0xbd314fe0	-0.043289065
244	0xbc218b86	-0.009859925
245	0xbd9814f3	-0.07425871
246	0xbc4ada79	-0.0123811895
247	0x3ca6635b	0.020311048
248	0x3daab5d3	0.083354615
249	0x3d8a3217	0.06747835
250	0xbdab0672	-0.08350839
251	0xbca1f2a4	-0.01976902
252	0xbd58862b	-0.052862328
253	0x3c44156a	0.011967996
254	0xbbf61e47	-0.0075109336
255	0x3d9502aa	0.07275899

convnet.1.bias f4 [16]
0	0xbcb1a7ba	-0.021686424
1	0xbd6c8971	-0.05774826
2	0x3d8c6d6c	0.06856808
3	0x3deafbb3	0.11473789
4	0xbd8ad7bc	-0.06779429
5	0xbc95b40c	-0.01827433
6	0x3dd95755	0.106123604
7	0xbd86b93b	-0.06578299
8	0xbd0c67a1	-0.034278516
9	0xbc649d7b	-0.013953562
10	0x3b6483da	0.0034868629
11	0xbce97161	-0.028496446
12	0x3d119cb1	0.035549823
13	0x3ddbba53	0.10728898
14	0x3c744b54	0.014910538
15	0xbb0fe92f	-0.0021959057

convnet.2.weight f4 [1, 16, 7]
0	0x3dade982	0.08491804
1	0xbd90726d	-0.07053075
2	0xbcfd480a	-0.03091814
3	0x3d2e58b7	0.042565074
4	0x3d5b85dc	0.053594455
5	0x3d81ac43	0.063316844
6	0x3c3e2f04	0.011607889
7	0xbd04088f	-0.032234725
8	0x3d84855b	0.06470748
9	0xb98afe54	-0.000265109
10	0x3c904283	0.01760984
11	0xbcea3957	-0.028591795
12	0xbd9f74e6	-0.077859685
13	0xbd812dd6	-0.06307571
14	0xbd3eeba9	-0.04661146
15	0xbc22ab3e	-0.009928523
16	0xbd0260ef	-0.031830724
17	0x3db4b986	0.08824448
18	0x3cc12a30	0.023579687
19	0xbd12143e	-0.035663836
20	0x3dce7daf	0.10082566
21	0x3d64e5e7	0.055883314
22	0x3dd33b64	0.10314062
23	0xbd717f9f	-0.0589596
24	0x3da1f318	0.079076946
25	0x3df5816b	0.11987575
26	0x3ced0a1f	0.02893549
27	0x3b76cab0	0.0037657432
28	0xbd37a330	-0.044833362
29	0xbd289e85	-0.0411668
30	0xbc084955	-0.008318265
31	0xbdc7bdbc	-0.09752986
32	0x3c3138d7	0.010816774
33	0xbb9fc700	-0.0048760176
34	0xbdaa8de0	-0.08327842
35	0xbc4edfbb	-0.012626584
36	0x3dca54ed	0.098794796
37	0x3db7dfb1	0.089782126
38	0x3d347877	0.044060197
39	0x3d3db339	0.0463135
40	0x3a7e5256	0.00097016
41	0x3d69b35a	0.05705581
42	0x3d606530	0.054784
43	0xbdac5b74	-0.08415881
44	0x3dca6509	0.09882552
45	0xbc9980e5	-0.01873822
46	0x3dc28584	0.09498122
47	0x3cd4aac0	0.025960326
48	0xbd266193	-0.040620398
49	0x3c9f8577	0.01947282
50	0x3b7dda24	0.0038734758
51	0x3d628839	0.055305693
52	0xbdc4b1ca	-0.09604223
53	0xbd9a2729	-0.075270005
54	0xbc722d88	-0.014781363
55	0xbc106b8a	-0.008814702
56	0x3d13cb8f	0.0360828
57	0xbdc50e2e	-0.09621845
58	0xbc7a90d9	-0.015293323
59	0xbd87ec22	-0.06636836
60	0x3bacdeb5	0.005275572
61	0x3d4a119b	0.049333196
62	0xbcf50a14	-0.029912032
63	0xbb498b0b	-0.0030753042
64	0xbcd24937	-0.025669677
65	0xbdc3b073	-0.095551394
66	0xbccae20d	-0.024765993
67	0xbd309407	-0.04310992
68	0xbd4bdf3d	-0.049773443
69	0xbd2f56a6	-0.042807244
70	0xbde32014	-0.11090103
71	0x3d76e9a2	0.060281403
72	0x3c3a2a3e	0.01136261
73	0x3cdd75d7	0.02703373
74	0xbdb32405	-0.087471046
75	0xbd2ebcbe	-0.042660467
76	0x3d6c7f90	0.05773884
77	0x3d468e69	0.048475657
78	0x3dbc8265	0.09204558
79	0x3cb687d1	0.02228156
80	0x3db8e3a9	0.09027798
81	0x3ca3e8dd	0.020008499
82	0x3d31464a	0.043279923
83	0xbd9f591f	-0.077806704
84	0x3db1ca52	0.08681168
85	0x3d71dbd1	0.059047524
86	0x3d792d5f	0.060834285
87	0xbd8d528d	-0.06900511
88	0xbd9bc5db	-0.07606097
89	0x3d247114	0.040146902
90	0xbdb106c5	-0.08643869
91	0x3de8b40f	0.113624685
92	0xbc4e1473	-0.012578118
93	0x3d167d9e	0.03674089
94	0x3ce05b10	0.027387172
95	0x3db4ef67	0.08834725
96	0x3bd3dc4f	0.006465472
97	0x3d6beb28	0.05759731
98	0x3dc4bdd7	0.096065216
99	0x3de48561	0.111582525
100	0x3c89b1e0	0.01680845
101	0x3c085578	0.008321159
102	0xbd58438a	-0.052798785
103	0x3cd4f020	0.025993407
104	0x3da2da22	0.07951762
105	0x3d9fafce	0.07797204
106	0xbd16e128	-0.03683582
107	0x3da5df36	0.08099215
108	0x3ccf82ac	0.025330864
109	0x3d0c6b80	0.034282207
110	0x3d626a2c	0.055277035
111	0xbcb3832e	-0.021913137

layers_amp.0.weight f4 [128, 52]
0	0x3d193bfa	0.037410714
1	0xbd4c6425	-0.049900193
2	0xbd9a59ca	-0.07536657
3	0xbdeace4b	-0.114651285
4	0x3c25dd9b	0.010123636
5	0xbdb6dcdf	-0.089288466
6	0x3d74dd36	0.059781276
7	0x3b59b174	0.0033217343
8	0xba3bfd76	-0.00071712525
9	0x3dab4c3c	0.0836415
10	0x3ae13cee	0.0017184296
11	0x3c48ebc4	0.012263242
12	0x3ba4f5bf	0.005034178
13	0x3a911e12	0.0011071584
14	0x3d010a00	0.031503677
15	0xbb772a56	-0.0037714443
16	0x3c56c1d4	0.013107736
17	0x3ccf4714	0.025302447
18	0x3da0aa19	0.078449436
19	0xbd355002	-0.044265755
20	0x3d8cee4d	0.0688139
21	0xbd1d3a0e	-0.038385443
22	0x3d8608b9	0.065446325
23	0x3d1a20d5	0.037628967
24	0xbdcf73b0	-0.101294875
25	0xbd244b87	-0.04011109
26	0xbe0cc578	-0.13747203
27	0x3c1c318d	0.009533298
28	0xbc1453a2	-0.009053143
29	0xbda073b0	-0.07834566
30	0xbcf8bfff	-0.030364988
31	0x3e4fdca7	0.20299016
32	0x3e4687cd	0.19387741
33	0x3e36632c	0.17811269
34	0x3e475593	0.19466238
35	0x3d216d91	0.03941113
36	0x3d0fe61d	0.035131563
37	0xbc35ace1	-0.011088581
38	0x3e08063f	0.13283633
39	0x3e540407	0.20704661
40	0x3d6e62d3	0.058199715
41	0x3dec2b4a	0.11531694
42	0xbde793b8	-0.11307472
43	0xbd411098	-0.047134966
44	0xbdb6a208	-0.08917624
45	0xbc618a80	-0.013765931
46	0xbdea540c	-0.11441812
47	0xbd56827d	-0.052370537
48	0x3cc79edc	0.024367742
49	0x3cb43e0a	0.022002239
50	0xbcabb002	-0.02095795
51	0xbc0b5c70	-0.008505926
52	0x3caff1d0	0.02147761
53	0x3d88643a	0.06659742
54	0xbda59889	-0.080857344
55	0x3c1868dd	0.009302345
56	0xbddb4fd4	-0.107085854
57	0xbe03c456	-0.12867865
58	0xbcee29d9	-0.029072689
59	0xbe050e33	-0.12993698
60	0xbd3177d6	-0.043327175
61	0xbe0268b4	-0.12735254
62	0xbdb99e0f	-0.090633504
63	0xbacf348f	-0.001580851
64	0x3d8b04c5	0.06788019
65	0x3dbe0c3f	0.092796795
66	0xbe0ad3fb	-0.13557427
67	0x3d9360b9	0.07196183
68	0xbd8d5a02	-0.06901933
69	0xbd58ff52	-0.052977867
70	0xbdb68736	-0.08912508
71	0xbd27d2a2	-0.04097236
72	0x3d73055c	0.059331283
73	0xbde6d9fd	-0.11272047
74	0x3d8611fa	0.065463975
75	0x3dcb06e8	0.09913427
76	0x3d1f61ec	0.038911745
77	0x3d19da1e	0.03756153
78	0xbdececc9	-0.11568601
79	0x3dd79ab5	0.10527555
80	0x3dd3a6b9	0.10334534
81	0xbdc05614	-0.09391418
82	0xbde03bd4	-0.10948911
83	0x3acaec2f	0.0015481765
84	0x3d0a0061	0.033691768
85	0xbd86f7e4	-0.0659025
86	0x3dcf80ff	0.10132026
87	0x3de8924a	0.113560274
88	0x3d7460d2	0.059662648
89	0x3cae8f70	0.02130863
90	0x3d8932a4	0.06699112
91	0x3d09ebbf	0.03367209
92	0xbe05da24	-0.13071495
93	0x3dc16d16	0.094446346
94	0x3dc0476a	0.09388621
95	0xbd931ca6	-0.07183199
96	0xbdc2881a	-0.094986156
97	0x3c738d3a	0.014865214
98	0x3d1f2e8f	0.03886276
99	0xbdea63d9	-0.11444826
100	0xbd72c377	-0.05926844
101	0xbc93157a	-0.017954577
102	0x3c59290f	0.013254418
103	0xbb862a7f	-0.0040944214
104	0xbdf4effb	-0.11959835
105	0x3da142fa	0.07874103
106	0xbc8bc592	-0.017061982
107	0x3c9d6367	0.019212438
108	0x3d5c91c1	0.05384994
109	0x3de78bb7	0.11305945
110	0xbc094c79	-0.008380049
111	0x3cf2d9fc	0.029644959
112	0xbdf16ea2	-0.1178868
113	0xbc457d53	-0.012053805
114	0x3bf56eb2	0.0074900026
115	0xbe142979	-0.14468946
116	0x3bcdf563	0.006285356
117	0xbe0b90db	-0.13629477
118	0x3d8684b7	0.06568282
119	0x3d2b6ec6	0.04185369
120	0x3df4ce3c	0.119533986
121	0x3dcb96ca	0.0994087
122	0xbd8bd6c1	-0.068280704
123	0x3c2606c4	0.010133449
124	0x3ceabdd4	0.02865497
125	0xbdcc134e	-0.099646196
126	0xbe11c785	-0.14236267
127	0x3dc18ebf	0.09451055
128	0x3d6466c2	0.05576206
129	0xbdb08ba3	-0.086203836
130	0x3dc46eb4	0.095914274
131	0x3cec7ccc	0.028868102
132	0xbcd46b97	-0.02593021
133	0x3dd9934a	0.10623796
134	0x3d839f3a	0.064268544
135	0xbdfcc624	-0.1234248
136	0xbc72a0c0	-0.014808834
137	0xbe161302	-0.14655688
138	0xbda47a9c	-0.080311984
139	0xbdb1d40b	-0.08683022
140	0xbdb12c35	-0.0865101
141	0x3dc0942a	0.0940326
142	0xbde5f0c4	-0.11227563
143	0x3b7f1f28	0.0038928483
144	0xbd6c1123	-0.05763353
145	0x3d33eb2e	0.043925457
146	0xbe005eda	-0.12536183
147	0x3d4102d9	0.047121856
148	0xbc851d8b	-0.016249439
149	0xbdcbd085	-0.09951881
150	0x3d8a9440	0.06766558
151	0x3c2d9585	0.01059473
152	0xbe077a69	-0.1323029
153	0x3deb1b43	0.11479809
154	0xbd5e0558	-0.054204315
155	0xbc8b4165	-0.016998956
156	0x3d06b7f2	0.032890268
157	0xbdf8c6e2	-0.12147309
158	0xbd60d2de	-0.0548886
159	0xbdb41325	-0.08792714
160	0xbdd5b921	-0.10435701
161	0xbd201fe2	-0.039092906
162	0xbdbfe981	-0.09370709
163	0xbe0e96b1	-0.13924672
164	0xbd01e97a	-0.0317168
165	0x3d5d33e9	0.054004584
166	0x3d186d44	0.03721358
167	0x3cbfb762	0.023402873
168	0xbddab99a	-0.10679932
169	0x3d4b84ed	0.049687315
170	0xbd998532	-0.07496108
171	0xbe16f323	-0.14741187
172	0xbcb9d7e2	-0.022685949
173	0x3dda049c	0.106454104
174	0xbcc5a3a7	-0.024125887
175	0x3cdf48ae	0.027256336
176	0xbc22ec4b	-0.009944032
177	0x3bb5aa9f	0.0055440213
178	0xbdb22ec5	-0.08700327
179	0xba6a6686	-0.0008941669
180	0xbe24e2db	-0.16102163
181	0xbdb31456	-0.08744113
182	0xbe05178c	-0.12997264
183	0x3de98ae3	0.11403444
184	0x3d9efa8a	0.0776263
185	0x3d8e6186	0.06952195
186	0xbd8ac53b	-0.067759
187	0x3df04d54	0.11733499
188	0x3deefbcc	0.1166912
189	0x3e3c9299	0.18415298
190	0x3e5296ab	0.20565288
191	0x3d9b9f7b	0.07598778
192	0x3e026e78	0.12737453
193	0x3e2a14e2	0.16609529
194	0x3e2bc9ff	0.16776274
195	0xbd918228	-0.071049035
196	0x3d7cb2b7	0.061693873
197	0x3d9a80ad	0.07544074
198	0xbced56a7	-0.028971983
199	0x3e20188e	0.15634367
200	0x3d2514a5	0.04030289
201	0xbc170bd1	-0.009219126
202	0x3d386de1	0.045026664
203	0xbd072d91	-0.03300244
204	0x3dba8e13	0.0910913
205	0xbd7c8a28	-0.061655194
206	0x3d6f8868	0.058479697
207	0xbc85430d	-0.016267324
208	0x3dc7b0e3	0.09750535
209	0x3c84a436	0.016191583
210	0xbd1251d7	-0.03572258
211	0xbd0fd097	-0.035111036
212	0x3a0dc371	0.0005407846
213	0x3c84559b	0.016154101
214	0x3de9d891	0.1141826
215	0x3daf15ef	0.085491054
216	0x3d72db5a	0.05929122
217	0x3d4cef56	0.050032936
218	0xbd865d13	-0.06560721
219	0xbcdbe565	-0.026842782
220	0x3e2808b6	0.16409573
221	0xbdb25771	-0.087080844
222	0x3d942820	0.07234216
223	0x3d8da9da	0.06917162
224	0xbd991235	-0.07474176
225	0x3d4a9f88	0.049468547
226	0xbcb8d259	-0.02256124
227	0x3d716d76	0.05894228
228	0x3e061e56	0.1309751
229	0x3dc3de60	0.09563899
230	0xbcf0fdee	-0.029417958
231	0xbe48e295	-0.19617684
232	0xbdb677f9	-0.08909602
233	0xbd5f7ef8	-0.054564446
234	0x3ce6d48b	0.02817752
235	0x3e42ddd3	0.19029932
236	0x3e845808	0.25848413
237	0x3df7d86f	0.12101828
238	0x3c835bc7	0.016034974
239	0xbe0e3022	-0.13885549
240	0xbdf1f44b	-0.11814173
241	0xbe36c047	-0.17846785
242	0xbd367a35	-0.04455014
243	0x3c8a24ad	0.016863192
244	0xbd5d3fa4	-0.05401577
245	0xbd72edcc	-0.059308812
246	0xbd829165	-0.06375388
247	0xbd65bddf	-0.05608928
248	0xbc90ee27	-0.017691685
249	0xbcc94f2c	-0.024573885
250	0x3dc5e932	0.09663619
251	0xbc4830cf	-0.012218668
252	0x3e172c6a	0.14763036
253	0x3e02d61f	0.12776993
254	0x3d9b7d16	0.075922176
255	0xbdc37520	-0.09543824

layers_amp.0.bias f4 [128]
0	0x3dd5f070	0.104462504
1	0x3df03c8f	0.11730301
2	0x3dbab77a	0.091170266
3	0x3dd228de	0.10261701
4	0x3d6d1bf6	0.057887994
5	0xbd4ba706	-0.049719833
6	0xbcf11978	-0.02943109
7	0x3d4e7f86	0.050414585
8	0xbdd2ea20	-0.10298562
9	0x3d0fc30b	0.035098117
10	0x3dc1278f	0.09431373
11	0x3d8ed1c2	0.06973602
12	0x3d30456b	0.043034952
13	0x3d840612	0.0644647
14	0x3db03f60	0.08605838
15	0xbd9bb200	-0.0760231
16	0xbdbe9ef8	-0.09307665
17	0x3df912eb	0.121618114
18	0x3d719b94	0.05898626
19	0xbdb21eaf	-0.08697259
20	0x3dceb60a	0.10093315
21	0x3d9ac0f4	0.07556334
22	0x3b63c45e	0.0034754495
23	0xbd98d417	-0.07462328
24	0x3e003ceb	0.12523238
25	0x3cb690e9	0.022285895
26	0x3e020938	0.12698829
27	0xbe031d21	-0.1280408
28	0x3df0c87a	0.11756988
29	0x3e00761d	0.12545057
30	0xbd4b5297	-0.04963931
31	0x3dd215ef	0.1025809
32	0x3d926a73	0.0714921
33	0x3db17c29	0.0866626
34	0xbcb6e2e6	-0.02232499
35	0xbe0b0d3f	-0.13579272
36	0xbe27606c	-0.16345376
37	0x3dab4761	0.08363224
38	0xbdcf92d3	-0.10135426
39	0x3d143e7f	0.036192413
40	0x3ddef97a	0.10887428
41	0x3d8c391e	0.06846832
42	0x3e034173	0.12817936
43	0xbd3fb514	-0.04680355
44	0x3df0cb2c	0.11757502
45	0xb9e0e4dc	-0.00042895123
46	0x3cb6cfb3	0.022315836
47	0xbd2f6193	-0.042817663
48	0x3cd69850	0.026195675
49	0xbd2ec398	-0.042667
50	0xbdce1b78	-0.10063833
51	0x3c51ab8d	0.012797249
52	0xbdc460f1	-0.095888026
53	0x3d888b64	0.06667212
54	0x3de86e3d	0.11349151
55	0xbe047d31	-0.12938382
56	0x3c3687c7	0.01114077
57	0xbbd82ff9	-0.0065975157
58	0xbd123256	-0.035692535
59	0x3bbab52c	0.005697867
60	0x3ccd2ca9	0.02504571
61	0x3e193270	0.14960647
62	0xbcf32199	-0.029679107
63	0xbd9e0bbb	-0.07717081
64	0xbe1251b9	-0.14288987
65	0x3d372f95	0.044723112
66	0xbc8e0c6c	-0.017339908
67	0x3dbd2b04	0.0923672
68	0xbd347706	-0.044058822
69	0xbcc5b4e9	-0.024134116
70	0xbddd5e1b	-0.10808965
71	0x3d28260e	0.041051917
72	0xbd7a13b3	-0.061053943
73	0xbde36d7c	-0.11104867
74	0xbd8f4eb1	-0.06997431
75	0x3e2f89a9	0.17142357
76	0xbc372746	-0.011178797
77	0xbdd41132	-0.10354842
78	0xbc928979	-0.017887818
79	0xbc2aa2aa	-0.010414759
80	0x3d6ed15e	0.058305137
81	0x3e376af9	0.179119
82	0xbdcdba7f	-0.10045337
83	0xbdee7178	-0.11642736
84	0x3b0528c1	0.002031848
85	0x3dad19de	0.084521994
86	0x3cd474e7	0.02593465
87	0xbd98eda6	-0.07467203
88	0x3d963195	0.07333676
89	0x3b6289ba	0.0034566955
90	0xbdeec2e9	-0.1165827
91	0xbdf8b85c	-0.12144539
92	0xbc23f9b2	-0.0100082625
93	0x3cc4b4b4	0.024011947
94	0x3dc0194a	0.093798235
95	0x3e1515e7	0.14559136
96	0xbe056f2a	-0.13030687
97	0xbe0a68d2	-0.13516548
98	0x3d92c4cd	0.07166443
99	0xbe009e5c	-0.1256041
100	0xbe1a0730	-0.15041804
101	0xbda4ba6b	-0.08043369
102	0xbc104271	-0.008804903
103	0x3cbfa547	0.02339424
104	0x3dcebeec	0.10095009
105	0x3d4f6f61	0.05064333
106	0x3d22691f	0.039651033
107	0xbde31a8a	-0.11089046
108	0xbd043634	-0.032278255
109	0x3db447df	0.08802771
110	0x3d9c0647	0.07618385
111	0xbda792de	-0.081823096
112	0x3da380b0	0.079835296
113	0x3d671ec4	0.056425825
114	0x3d91aee5	0.071134366
115	0xbd25d960	-0.040490508
116	0xbdd44810	-0.10365307
117	0xbd02818e	-0.031861834
118	0xbd01064c	-0.031500146
119	0x3d084cd1	0.033276383
120	0xbdfdc673	-0.12391367
121	0x3d950059	0.07275457
122	0xbd5163f1	-0.051120702
123	0x3e029415	0.12751801
124	0xbdd20de7	-0.10256558
125	0x3d21e6d1	0.039526764
126	0x3d197de1	0.037473563
127	0xbd33bbb3	-0.043880176

layers_amp.1.weight f4 [64, 128]
0	0xba463d44	-0.000756223
1	0x3d4557e9	0.04817954
2	0xbda2f806	-0.07957463
3	0xbc803b16	-0.015653174
4	0x3b1661bc	0.0022946438
5	0x3c7809bf	0.015139042
6	0x3c56bb03	0.0131061105
7	0x3d2a22c7	0.041537073
8	0xbd627c04	-0.05529405
9	0xbd45a3cf	-0.048251923
10	0x3c5dca21	0.013536961
11	0xbc30f2ed	-0.0108001055
12	0x3d16973d	0.036765326
13	0xbd81e7aa	-0.063430145
14	0x3da14e1f	0.078762285
15	0xbc35b123	-0.011089596
16	0xbd3188a0	-0.043343186
17	0x3c1cdf9d	0.009574798
18	0xbbca65ee	-0.0061767017
19	0x3cbb0a5c	0.022832088
20	0xbaa7e8f1	-0.0012810511
21	0x3cf1865b	0.029483011
22	0xbd286cbd	-0.041119326
23	0x3cb6900f	0.02228549
24	0x3c817207	0.015801443
25	0x3cd0928f	0.02546051
26	0xbba73969	-0.0051032794
27	0x3d48be5f	0.049009677
28	0x3b015d29	0.0019739366
29	0xbcf058b3	-0.02933917
30	0xbd5ad318	-0.05342397
31	0x3c8070d1	0.015678795
32	0xbcd647e6	-0.02615733
33	0x3af81073	0.0018925801
34	0xbc61a6df	-0.013772695
35	0xbc1897cf	-0.009313538
36	0xbc978b86	-0.018499147
37	0xba90aa3e	-0.0011037064
38	0xbbd0af23	-0.006368534
39	0x3da7c913	0.08192649
40	0xbc36992f	-0.01114492
41	0x3d005f1e	0.03134071
42	0xbb8a58dc	-0.0042220186
43	0x3c4fa9df	0.012674778
44	0x3d1e6cb4	0.038677886
45	0xbd1e972f	-0.0387184
46	0xbd99f262	-0.07516934
47	0x3d2a884b	0.041633885
48	0x3bb0bd9d	0.0053936974
49	0xbd2d2ba1	-0.042277936
50	0x3c5a1e07	0.013312823
51	0x3c3c4b0a	0.0114925
52	0xbc442bb9	-0.011973315
53	0xbcac6695	-0.021045009
54	0x3c7eae02	0.015544416
55	0x3bcd92c3	0.006273599
56	0x3cb780ab	0.02240022
57	0xbd07dde5	-0.0331706
58	0x3d8c497d	0.06849954
59	0xbc98253e	-0.018572446
60	0x3bfe1dc4	0.007755013
61	0x3ce7f320	0.028314173
62	0xbcd22959	-0.025654482
63	0xbd8ef749	-0.0698076
64	0x3d9f6fbf	0.07784986
65	0x3a96c2a1	0.0011502096
66	0x3cf3f02d	0.02977761
67	0xbd940087	-0.07226663
68	0x3daa4a42	0.08314945
69	0x3d09042d	0.033451248
70	0xbc47d1ca	-0.012196014
71	0x3d1b07dd	0.037849296
72	0xbd3d4bb1	-0.046214763
73	0xbd737b32	-0.05944366
74	0x3c0c05a8	0.00854627
75	0xbd1df52d	-0.038563896
76	0x3d001f44	0.031279817
77	0xbd5e9f1b	-0.054350954
78	0x3c3f0b6d	0.011660439
79	0x3d387343	0.045031797
80	0x3cd7af16	0.026328605
81	0x3d549b5f	0.051905986
82	0x3a02f104	0.00049950206
83	0xbd2cce80	-0.04218912
84	0xbbbfd51a	-0.005854261
85	0xbd77029e	-0.06030523
86	0x3c5ff560	0.013669342
87	0x3c0aa1d8	0.008461438
88	0xbd6f8331	-0.058474723
89	0xbd0ee102	-0.034882553
90	0xbd775135	-0.06038018
91	0xbc3d4ae2	-0.011553498
92	0xbcecabff	-0.028890608
93	0x3d93b6fa	0.072126344
94	0x3d429a30	0.047510326
95	0xbb79ff4a	-0.003814655
96	0x3d68a769	0.05680028
97	0x3d58f7cc	0.052970693
98	0xbd9c2dc0	-0.076259136
99	0xbbd5183d	-0.0065031336
100	0x3bd6e2a6	0.0065577803
101	0x3d22255f	0.03958642
102	0x3bfecee0	0.0077761263
103	0x3cab6c2f	0.02092561
104	0x3c170ebb	0.009219821
105	0x3d3f7326	0.046740673
106	0xbd4ca691	-0.049963538
107	0xbc81d12e	-0.015846815
108	0x3d9adc6f	0.075615756
109	0xba8d247d	-0.0010768321
110	0xbbbb7033	-0.0057201623
111	0x3d21a5ac	0.039464638
112	0xbba7d074	-0.005121285
113	0x3b671fb5	0.0035266702
114	0xbcaebc08	-0.021329895
115	0xbce57cad	-0.028013552
116	0xbcd09b02	-0.025464538
117	0xbc3235c8	-0.01087708
118	0x3d5000dd	0.050782073
119	0xbc3d5bcc	-0.011557531
120	0x3d351e9c	0.044218644
121	0xbd494447	-0.04913738
122	0x3d5b1576	0.053487264
123	0xbda971e6	-0.082736775
124	0x3baa948a	0.0052056955
125	0x3d058476	0.032597028
126	0xbb6dd05d	-0.0036287524
127	0xbd355521	-0.04427064
128	0x3d4ec4ff	0.05048084
129	0x3c1ad172	0.00944935
130	0x3d09e32a	0.033663906
131	0xbdfb5bd9	-0.12273378
132	0xbc046cce	-0.008082582
133	0xbc090196	-0.0083621945
134	0xbc78906d	-0.015171153
135	0xbc839a23	-0.016064709
136	0x39f91634	0.00047509524
137	0x3ccac228	0.024750784
138	0x3cbae46a	0.022813994
139	0xbda9e8d4	-0.082963616
140	0xbd881d01	-0.06646157
141	0x3da5ef78	0.08102316
142	0x39617d0a	0.00021504253
143	0xbd12f7a8	-0.035880715
144	0xbd410f0c	-0.04713349
145	0x3da70401	0.081550606
146	0x3c22afc3	0.0099296
147	0x3d81e704	0.06342891
148	0xbc30bfac	-0.010787886
149	0xbd0baff0	-0.034103334
150	0x3b89729e	0.0041945716
151	0xbd7cac75	-0.061687905
152	0xbb89a2d1	-0.0042003174
153	0xbba51bc2	-0.0050387094
154	0xbd22f5c6	-0.03978517
155	0x3d91f67e	0.07127093
156	0x3d504d63	0.05085505
157	0xbda215e3	-0.07914331
158	0x3ca847e3	0.02054209
159	0x3d81ca95	0.063374676
160	0xbd646e62	-0.05576933
161	0x3cffa3d9	0.031206058
162	0x3d5b4e28	0.053541332
163	0xbc187aa4	-0.009306584
164	0xbc1afe6e	-0.009460075
165	0x3d7d8736	0.061896525
166	0xbd2ecb3e	-0.042674296
167	0x3a93c404	0.0011273627
168	0x3cd61d5f	0.026137052
169	0xbba6a27e	-0.0050852885
170	0x3c8024bb	0.015642514
171	0x3b7aea4e	0.003828663
172	0xbcbf9e67	-0.023390962
173	0xbcce33d5	-0.0251712
174	0xbd4c125b	-0.049822193
175	0x3d120663	0.035650622
176	0x3d326c1c	0.043560132
177	0xbd3d0373	-0.046145868
178	0xbd216889	-0.039406333
179	0xbd7c1ac8	-0.061548978
180	0xbd7a0e30	-0.061048687
181	0xbd86e105	-0.06585888
182	0xbb83f7e0	-0.0040273517
183	0x3c602072	0.013679611
184	0xbce00622	-0.027346674
185	0x3d9d71ed	0.07687745
186	0xbc44190f	-0.011968865
187	0xbce1e774	-0.027576186
188	0xbdaa6bca	-0.083213404
189	0xbc977dd7	-0.018492622
190	0xbd9e147c	-0.07718751
191	0xbd59dd10	-0.053189337
192	0xbdb13e05	-0.086544074
193	0xbc1b79c9	-0.009489485
194	0x3d19a6b5	0.0375125
195	0x3d76936e	0.060199194
196	0xbd54c69b	-0.051947217
197	0xbc67c760	-0.014146656
198	0x3db1a470	0.08673942
199	0xbc1c5f8f	-0.009544267
200	0x3d37237f	0.044711586
201	0x3d62c238	0.055361003
202	0xbc479c16	-0.01218321
203	0x3ce49626	0.027903628
204	0x3d6dd6ec	0.058066294
205	0x3d0e27e1	0.034706
206	0xbc67790f	-0.014127984
207	0x3b912d90	0.0044304803
208	0xbc7d0f7c	-0.015445586
209	0x3d5168ab	0.05112521
210	0xbd5486ea	-0.051886477
211	0xbe085926	-0.13315257
212	0xbb177f87	-0.0023116784
213	0xbd3c48c7	-0.045967843
214	0x3dab62c5	0.08368448
215	0x3d165650	0.036703408
216	0xbd8e284c	-0.0694128
217	0x3c02ec9b	0.007990981
218	0xbcdeba76	-0.02718852
219	0x3d87c76f	0.06629836
220	0xbdbd4b8d	-0.09242926
221	0xbd15d9c2	-0.036584623
222	0x3d178f19	0.037001703
223	0x3c14d186	0.009083157
224	0x3ddca7da	0.10774203
225	0x3ca085b8	0.019595012
226	0x3c615e0a	0.013755331
227	0x3ca42e28	0.02004154
228	0x3c509a3b	0.012732084
229	0xbd27ac72	-0.04093594
230	0x3d1a5081	0.03767443
231	0x3ca3612f	0.019943802
232	0x3d44915c	0.047990188
233	0x3ce01fbd	0.027358884
234	0xbd26913a	-0.040665843
235	0x3cedcc97	0.02902822
236	0xbd6af53e	-0.057362787
237	0x3cdfbe2b	0.027312359
238	0x3d3dd344	0.046344057
239	0x3d83aa16	0.06428926
240	0x3b760fb1	0.0037545974
241	0x3cbef88b	0.023311874
242	0xbd421004	-0.047378555
243	0xbd328e3c	-0.043592677
244	0xbd979236	-0.074009344
245	0xbc84384f	-0.016140131
246	0x3c87463c	0.016512983
247	0x3d6d47be	0.057929747
248	0x3c235018	0.009967826
249	0xbbfb0bd2	-0.007661321
250	0x3cd59e12	0.02607635
251	0x3d7c5914	0.06160839
252	0x3d8cd491	0.06876481
253	0x3d15e736	0.036597453
254	0xbd255b80	-0.040370464
255	0xbd90f494	-0.070778996

layers_amp.1.bias f4 [64]
0	0x3d2464f4	0.04013534
1	0x3c5861cb	0.013206909
2	0xbd2b0a2f	-0.04175776
3	0x3d12b57b	0.035817605
4	0x3c0a5f60	0.008445591
5	0x3d916082	0.070984855
6	0xbd09a60f	-0.03360563
7	0xbdd6a49d	-0.10480616
8	0x3ac69463	0.0015150424
9	0xbc3e4a46	-0.011614388
10	0x3dac5de5	0.084163465
11	0xbda8ccee	-0.08242212
12	0xbce1ad55	-0.027548471
13	0x3c0273bd	0.0079621645
14	0xbd7e6a17	-0.062112894
15	0x3d9cd80b	0.076583944
16	0xbd72864c	-0.059210107
17	0x3ba127a4	0.0049180556
18	0x3ce2aa31	0.027669044
19	0x3c987265	0.018609235
20	0xbc52a0c3	-0.012855711
21	0x3ca727e2	0.02040476
22	0x3d5ec906	0.05439093
23	0xbad5a191	-0.0016298761
24	0xbcc7abc8	-0.024373904
25	0xbd96ce0c	-0.07363519
26	0x3d959099	0.073029704
27	0xbd94ea36	-0.07271235
28	0x3d832446	0.06403403
29	0xbdb46130	-0.088075995
30	0xba3d89f7	-0.0007230336
31	0x3d675cac	0.056484863
32	0x3d855051	0.0650946
33	0x3d9ec567	0.07752495
34	0x3cca6896	0.024708074
35	0x3d531dc8	0.051542073
36	0xbb4ef263	-0.003157758
37	0x3cf9b7bd	0.030483121
38	0x3c5c2bb1	0.013438151
39	0x3d889581	0.066691406
40	0xbda00093	-0.078126095
41	0xbdb45141	-0.088045605
42	0x3d7044f2	0.0586595
43	0xbdc5401a	-0.09631367
44	0x3e09ab03	0.13444142
45	0xb9b0c212	-0.0003371393
46	0xbda89afa	-0.082326844
47	0xbd02315f	-0.031785365
48	0xbccd92d3	-0.025094425
49	0x3d598fa0	0.053115487
50	0xbd0ce404	-0.03439714
51	0x3d725dd3	0.05917151
52	0xbd4c5dfb	-0.049894314
53	0x3d8b38d9	0.06797952
54	0xbd6c8200	-0.057741165
55	0xbce49dcd	-0.027907277
56	0x3cb87a9d	0.022519404
57	0xbc586418	-0.013207458
58	0xbc8d9207	-0.017281545
59	0x3b0616b9	0.002046032
60	0x3d1e7881	0.03868914
61	0xbd472f17	-0.048628893
62	0x3af7d7a4	0.001890887
63	0xbb8b1015	-0.0042438605

layers_phi.0.weight f4 [128, 52]
0	0xbd715037	-0.05891439
1	0x3dd596f2	0.10429181
2	0x3ddcd957	0.10783642
3	0x3d543f2c	0.051818058
4	0xbda851a2	-0.08218695
5	0x3d90136c	0.070349544
6	0xbd5c9430	-0.05385226
7	0x3d672b0a	0.05643753
8	0x3d92edb1	0.07174242
9	0xbd3ae30f	-0.045626696
10	0x3d503040	0.050827265
11	0x3d6286e4	0.055304423
12	0xbd7dc346	-0.061953805
13	0xbd5de435	-0.054172713
14	0x3d89c9f4	0.067279726
15	0x3e09676f	0.13418363
16	0xbd0d432e	-0.034487896
17	0x3cf45286	0.029824506
18	0x3c8e4ef8	0.01737164
19	0x3db12735	0.08650056
20	0x3d80de31	0.0629238
21	0xbde84555	-0.11341349
22	0x3cc4426a	0.02395745
23	0xbca3f9c3	-0.020016557
24	0xbd06559c	-0.032796487
25	0x3c9e9326	0.019357275
26	0xbdae9cae	-0.08525978
27	0x3c8d0782	0.017215494
28	0x3e0a1620	0.13485003
29	0xbcc6bd44	-0.02426017
30	0x3e09f0da	0.13470784
31	0x3d6990be	0.057022803
32	0xbe2a5344	-0.16633326
33	0x3db0550c	0.086099714
34	0xbdd7a9b0	-0.10530412
35	0x3cb79b95	0.022413054
36	0x3dd1f7ba	0.10252328
37	0xbe28215f	-0.1641898
38	0x3b9ebe81	0.004844487
39	0x3a8b8653	0.001064489
40	0x3d42335a	0.047412254
41	0xbdba690c	-0.09102067
42	0x3d67a6de	0.05655562
43	0xbce9aa89	-0.0285237
44	0xbba3e75e	-0.0050019464
45	0xbdc8d68f	-0.09806549
46	0x3d9df616	0.07712953
47	0x3c6e8366	0.014557695
48	0x3b32a77d	0.0027260475
49	0x3d89ed6e	0.06734739
50	0x3ab41fe2	0.0013742412
51	0x3db841fc	0.089969605
52	0x3dd6acbf	0.104821675
53	0x3e074841	0.13211156
54	0xbc620d6b	-0.013797144
55	0xbd9666a9	-0.073437996
56	0xbdea6c4c	-0.11446437
57	0x3e0b1767	0.13583146
58	0xbe0b3b68	-0.1359688
59	0xbda38d23	-0.07985904
60	0xbd8f3d09	-0.069940634
61	0xbe0472bf	-0.12934397
62	0x3d9074e2	0.070535436
63	0xbdff0d21	-0.12453676
64	0xbe000500	-0.12501907
65	0x3daa0a4a	0.08302744
66	0x3d60ba2d	0.05486505
67	0x3da4964b	0.080364786
68	0x3cce392a	0.025173742
69	0x3e0532e0	0.13007689
70	0xbdde09d4	-0.10841718
71	0x3dcaa652	0.09895004
72	0xbd57501b	-0.05256663
73	0xbd8035a4	-0.06260231
74	0xbd67ac93	-0.056561064
75	0xbccff49c	-0.025385194
76	0xbd534d57	-0.05158743
77	0xbbf983ac	-0.0076145735
78	0x3e0b5031	0.1360481
79	0xbdab7246	-0.08371405
80	0x3d4e4cec	0.050366327
81	0xbbbdec2b	-0.0057959757
82	0xbccd2487	-0.025041832
83	0xbd630f5e	-0.055434577
84	0xbdb6f2b0	-0.08933008
85	0x3d351853	0.04421265
86	0xbcad6665	-0.02116699
87	0xbd4480ab	-0.04797427
88	0xbdd02898	-0.10163993
89	0xbdc85bfc	-0.097831696
90	0xbddd3d43	-0.108027
91	0xbd4c878d	-0.04993396
92	0xbd8d1877	-0.06889432
93	0x3d3d8bb7	0.04627582
94	0x3d06c131	0.032899085
95	0xbd4ffda5	-0.050779004
96	0x3d58dd26	0.05294528
97	0x3e042b7d	0.12907214
98	0x3d8135fa	0.06309123
99	0x3dec6e1e	0.11544441
100	0x3c032012	0.008003252
101	0xbca7fbb9	-0.020505773
102	0xbdd1da82	-0.10246755
103	0xbd7f73ad	-0.062366176
104	0x3d860cbb	0.06545397
105	0xbd46df56	-0.048552833
106	0x3d41cf33	0.04731674
107	0x3e237f4d	0.1596653
108	0x3e1da818	0.15396154
109	0x3da416f3	0.0801219
110	0xbdbef3d2	-0.09323849
111	0x3c6078bc	0.01370066
112	0xbd119f3f	-0.03555226
113	0xbd01de0b	-0.031705897
114	0xbd413687	-0.047171142
115	0xbd9ca9d6	-0.07649581
116	0x3e163d80	0.14671898
117	0xbcb0626b	-0.021531304
118	0x3d705396	0.058673464
119	0x3d02db8a	0.03194765
120	0xbb7e29b0	-0.0038782172
121	0xbda28c7d	-0.07936952
122	0x3d93776c	0.07200512
123	0x3d916c56	0.071007416
124	0x3dbaa2b5	0.09113065
125	0x3e1ed753	0.15511827
126	0x3dfb7705	0.122785605
127	0x3e0687be	0.13137719
128	0x3b55d738	0.00326295
129	0x3e084b78	0.13310039
130	0xbdd7aec3	-0.1053138
131	0xbd2ca65a	-0.042150833
132	0xbd82ea68	-0.06392366
133	0x3e10c270	0.14136672
134	0xbd33c16e	-0.04388564
135	0xbb3d7ead	-0.0028914616
136	0xbcbd0e3d	-0.023078078
137	0xbe0270c0	-0.12738323
138	0xbe180566	-0.1484581
139	0xbd5809ef	-0.05274385
140	0xbbdf8ff3	-0.00682258
141	0xbc4d685e	-0.01253709
142	0xbd933d6b	-0.07189449
143	0x3e0007a3	0.12502913
144	0x3da556fb	0.08073231
145	0xbd93ba1a	-0.072132304
146	0x3d9fc42f	0.07801091
147	0xbce74f95	-0.02823619
148	0xba0020ce	-0.0004887701
149	0x3cca2dc8	0.024680033
150	0x3dcf4cdf	0.10122084
151	0xbb06637f	-0.0020506082
152	0x3bc48df4	0.0059983674
153	0xbd259bf1	-0.04043192
154	0x3a2ceb4f	0.0006596343
155	0xbc7de7f3	-0.015497196
156	0x3d3a0114	0.045411184
157	0xbd9ddb6f	-0.07707869
158	0x3e1448a6	0.14480838
159	0xbbb7217e	-0.0055887094
160	0x3e07c3d6	0.13258299
161	0x3dd6d2f9	0.104894586
162	0xbd87233b	-0.065985166
163	0x3e258afd	0.16166301
164	0xbd84ae4b	-0.06478556
165	0xbcc8beae	-0.024504986
166	0x3c5bcca8	0.013415493
167	0xbdb28877	-0.08717435
168	0xbd624a3f	-0.055246588
169	0xbd0c9883	-0.034325134
170	0x3cae330f	0.021264581
171	0x3dbb6a6b	0.09151157
172	0x3df37411	0.11887372
173	0x3c1fa5dc	0.009744134
174	0xbda65262	-0.08121182
175	0xbdf0e475	-0.11762325
176	0xbd85e73e	-0.065382466
177	0x3e4c74b8	0.199664
178	0xbd735b4a	-0.059413232
179	0x3de2d87b	0.110764466
180	0xbd29d1cc	-0.041459844
181	0xbd03ffbb	-0.032226305
182	0xbca1bac1	-0.019742372
183	0xbd5826a5	-0.05277123
184	0xbd3ce761	-0.046119098
185	0x3d988101	0.074464805
186	0xbd0540e9	-0.032532606
187	0xbcdfb14c	-0.027306221
188	0x3ddce232	0.10785331
189	0xbc525320	-0.012837201
190	0xbc869c0c	-0.01643183
191	0x3de469ac	0.11152968
192	0xbd8fcee6	-0.070218846
193	0x3e3cd96c	0.18442315
194	0xb9d56126	-0.00040698907
195	0x3d7518df	0.059838172
196	0xbbd45b54	-0.0064806137
197	0xbdffe76b	-0.12495311
198	0xbd3cc61b	-0.046087366
199	0xbd7c7c38	-0.0616419
200	0x3d7eb3ec	0.062183306
201	0xbd90850c	-0.07056627
202	0xbc6b3bd4	-0.014357526
203	0x3d8189c0	0.06325102
204	0xbda345d1	-0.07972301
205	0xbd1cbad8	-0.038264126
206	0x3e034602	0.12819675
207	0x3e2f7709	0.17135252
208	0x3dc4858c	0.095957845
209	0x3dfd746e	0.12375723
210	0xbcd17523	-0.02556855
211	0xbdc86f6b	-0.09786876
212	0xbddbea66	-0.10738067
213	0x3d71b2c3	0.05900837
214	0x3d754b04	0.059885994
215	0xbdcc207d	-0.09967134
216	0x3dc425f0	0.095775485
217	0x3e174419	0.14772071
218	0xbd339a6e	-0.043848448
219	0x3d9e40ba	0.07727189
220	0x3d7849d5	0.060617287
221	0x3b9de200	0.004818201
222	0x3d19ea85	0.03757717
223	0x3d8eab95	0.069663204
224	0xbcf70316	-0.030152839
225	0xbd2e6482	-0.04257632
226	0x3e083d50	0.13304639
227	0x3d5de845	0.054176588
228	0x3d88e2f6	0.06683914
229	0xbd9b8405	-0.0759354
230	0x3d81acc9	0.06331784
231	0x3dd6d229	0.104893036
232	0xbb89f267	-0.004209805
233	0xbc0891e6	-0.008335566
234	0xbd878391	-0.06616891
235	0x3b9f2c2d	0.004857561
236	0x3dfce6cc	0.123487085
237	0xbd915b0a	-0.070974424
238	0x3c63bc36	0.013899853
239	0x3c43c51b	0.011948849
240	0xbd6b449c	-0.057438478
241	0xbe0d5621	-0.13802387
242	0xbddac95b	-0.10682937
243	0xbc932255	-0.017960707
244	0xbdecc9db	-0.115619384
245	0x3d958b0f	0.07301914
246	0x3c3084ca	0.010773847
247	0x3dc3977f	0.0955038
248	0xbd16ab03	-0.036784183
249	0x3c80d439	0.015726196
250	0x3da6f243	0.081516765
251	0x3dbff753	0.09373345
252	0x3e074297	0.13208996
253	0xbd8e37dd	-0.06944249
254	0xbe10dea5	-0.14147432
255	0xbd87025b	-0.06592246

layers_phi.1.weight f4 [64, 128]
0	0xbc62057a	-0.013795251
1	0x3ca0fb7b	0.019651165
2	0xbc0822c4	-0.00830907
3	0x3d08baf8	0.033381432
4	0x3c83870d	0.016055608
5	0x3d09f17e	0.03367757
6	0x3c9ab4a9	0.018884974
7	0x3cbbc2c8	0.022920027
8	0x3d34d54a	0.04414872
9	0xbda5ca8f	-0.080952756
10	0xbbb68ff8	-0.0055713616
11	0x3c304554	0.010758717
12	0xbdad966f	-0.084759586
13	0xbc3b3d9c	-0.011428263
14	0x3d161181	0.036637787
15	0xbd2c11dc	-0.04200922
16	0x3d4bbdd4	0.04974158
17	0xbd012028	-0.031524807
18	0xbc7449ec	-0.0149102025
19	0xbc5a0b9c	-0.013308432
20	0xbcc7685d	-0.024341756
21	0xbc945d61	-0.018110933
22	0xbda660dd	-0.08123944
23	0xbcd4938c	-0.025949262
24	0xbc3d9a35	-0.01157241
25	0xbd4f60d4	-0.050629452
26	0x3d534fb1	0.05158967
27	0xbd3670b6	-0.044541083
28	0x3d009247	0.0313895
29	0xbc9f6749	-0.01945843
30	0x3cbecf6c	0.023292266
31	0x3cb750d5	0.02237741
32	0xbd985f4a	-0.0744005
33	0xbd66db3c	-0.056361422
34	0xbd25e501	-0.0405016
35	0x391dc205	0.00015044965
36	0x3cf75a26	0.030194353
37	0x3da47b96	0.08031385
38	0xbcb444bb	-0.02200543
39	0xbcc1e566	-0.023668956
40	0xbc03e86f	-0.008051022
41	0xbd03fab0	-0.032221496
42	0x3d91b2f2	0.07114209
43	0xbc090688	-0.008363374
44	0x3d8dd93b	0.06926199
45	0xbcbfacb0	-0.023397774
46	0x3d42075b	0.047370296
47	0xbccad7f0	-0.02476117
48	0x3d6f3771	0.058402482
49	0xbda18565	-0.07886771
50	0xbac443a5	-0.0014973773
51	0xbd8c8136	-0.068605825
52	0x3ae9c47e	0.0017835048
53	0xbcff58ad	-0.031170214
54	0x3cf5b2e6	0.029992532
55	0xbcf3f3b8	-0.0297793
56	0x3c97b64e	0.018519547
57	0x3c8011b7	0.015633447
58	0x3d16bb60	0.03679979
59	0x3b85b3d9	0.0040802774
60	0xbd490817	-0.04907998
61	0xbd05d941	-0.032677893
62	0x3d737099	0.059433553
63	0x3d0d7ac4	0.034540907
64	0x3b86981f	0.0041074897
65	0x3d467748	0.0484536
66	0xbd6ea968	-0.058267027
67	0xbd21711c	-0.03941451
68	0x3d3c922e	0.046037845
69	0x3b040f35	0.0020150666
70	0x3d33fc59	0.04394183
71	0xbc8c7cbf	-0.017149327
72	0x3d305126	0.04304614
73	0xbc972e86	-0.018454801
74	0xbdb46fb7	-0.088103704
75	0xbcdb7f02	-0.02679396
76	0x3d8bd659	0.06827993
77	0xbc9876f9	-0.018611418
78	0xbd513dd5	-0.05108436
79	0x3c6a76ca	0.014310548
80	0x3da24aae	0.079244
81	0x3d992426	0.07477598
82	0x3d1dc7c4	0.03852059
83	0xbd17d024	-0.037063733
84	0xbda7b5cc	-0.08188972
85	0xbd8d9efb	-0.06915089
86	0xbca3baeb	-0.01998659
87	0x3d5cf17a	0.053941227
88	0xbcc35420	-0.023843825
89	0xbd5844e8	-0.05280009
90	0xbd003628	-0.031301647
91	0xbd2c42d8	-0.042055935
92	0x3cd8789b	0.026424697
93	0xbd02749f	-0.0318495
94	0x3b386ae7	0.002813989
95	0x3d01fea4	0.031736985
96	0xbd948059	-0.07251043
97	0xbcaebc4f	-0.021330027
98	0xbd826d6e	-0.06368528
99	0x3d980769	0.074232884
100	0x3c815dd2	0.015791807
101	0xbc7d44dd	-0.015458313
102	0xbd747014	-0.0596772
103	0xbdac9022	-0.08425929
104	0x3b07d3a4	0.0020725513
105	0xbc9322cd	-0.01796093
106	0xbd374eb8	-0.044752806
107	0xbc2e2f53	-0.0106314
108	0x3c1ff774	0.009763587
109	0xbaaad108	-0.0013032267
110	0x3d53681b	0.051612955
111	0x3b32578f	0.0027212834
112	0xbcc9b530	-0.02462253
113	0xbd8c41ae	-0.06848465
114	0xbbdc13d4	-0.006716231
115	0xbb10c0bb	-0.0022087533
116	0x3c54ae37	0.012980989
117	0xbd2f0f2a	-0.04273907
118	0xbd8642e0	-0.06555724
119	0xbb79c4e0	-0.0038111731
120	0x3d985abc	0.07439181
121	0xbd344a51	-0.044016186
122	0xbbaa0836	-0.005188967
123	0xbd698ae5	-0.057017226
124	0xbcdf762b	-0.027278027
125	0x3c482839	0.012216621
126	0x3cbb90de	0.022896226
127	0x3c0a1326	0.008427417
128	0xbb8b0bef	-0.004243366
129	0xbd3872f7	-0.045031514
130	0xbca713c5	-0.020395169
131	0x3c1e2bc9	0.009653994
132	0x3c0082cd	0.007843685
133	0x3ce6c679	0.028170811
134	0x3bb04c5a	0.0053801956
135	0xbc39f9a3	-0.011351022
136	0x3dadd97c	0.084887475
137	0x3cbfa490	0.0233939
138	0x3cf24776	0.02957509
139	0x3c9ec199	0.019379424
140	0x3d6c2d59	0.057660434
141	0xbbf87670	-0.007582478
142	0xbccdba69	-0.025113301
143	0x3d37949b	0.044819456
144	0xbd2c3f7a	-0.042052723
145	0xbd0b959f	-0.034078237
146	0x3d97eadd	0.074178435
147	0x3c88fec5	0.016723046
148	0x3d5e2894	0.054237917
149	0x3b50c16d	0.0031853572
150	0x3c9c7ec3	0.019103413
151	0x3c61c650	0.013780192
152	0xbc1a16f1	-0.009404884
153	0x3ca8e305	0.020616064
154	0xbd77e671	-0.0605225
155	0xbb0bd3b1	-0.0021335895
156	0x3d246250	0.04013282
157	0xbd5432f5	-0.05180641
158	0xbc3ec3ff	-0.011643409
159	0x3ca52272	0.020158026
160	0xbca88c7d	-0.020574803
161	0x3d84ed52	0.06490578
162	0x3ce11c5d	0.027479345
163	0xbc86a503	-0.016436106
164	0x3d2b4c90	0.041821063
165	0xbd265375	-0.040606935
166	0xbd89d180	-0.06729412
167	0xbc7c7259	-0.015408122
168	0x3d9e0340	0.07715464
169	0x3cdb540f	0.02677348
170	0x3aa4863c	0.0012552212
171	0xbc08fe61	-0.00836143
172	0xbd41a33f	-0.047274824
173	0x3da0711e	0.078340754
174	0xbcbc8037	-0.023010356
175	0xbd9b7567	-0.07590752
176	0xbca5f4d6	-0.020258348
177	0x3d9a3808	0.07530218
178	0x3c23c581	0.009995819
179	0xbd9ccdba	-0.07656427
180	0xbb885e69	-0.004161645
181	0xbd421814	-0.047386244
182	0xbc9b8f47	-0.018989218
183	0x3d8e5f07	0.06951719
184	0xbd1b9aa4	-0.037989274
185	0x3d982833	0.074295424
186	0xbc830a34	-0.015996076
187	0x3b3e75ff	0.002906203
188	0x3ca31f95	0.01991252
189	0xbca91fbf	-0.02064502
190	0xbc191fe9	-0.009345987
191	0xbca091cf	-0.019600777
192	0x3d9d9fac	0.076964706
193	0xbd57a17e	-0.052644245
194	0x3d8ae011	0.067810185
195	0x3cd2af6d	0.025718415
196	0x3c4052cf	0.011738493
197	0x3d05358d	0.032521773
198	0x3cb01cb9	0.021498071
199	0xbcf1c201	-0.029511454
200	0x3c1b5c6f	0.009482487
201	0x3d755221	0.059892777
202	0xbbf4f5f9	-0.0074756113
203	0xbce6095c	-0.028080635
204	0xbcb52cf7	-0.022116167
205	0x3d8d2831	0.068924315
206	0x3cfb44e1	0.030672492
207	0x3ccc03d0	0.024904162
208	0x3d078d08	0.033093482
209	0x3d6560f3	0.05600066
210	0xbca49b9b	-0.02009373
211	0xbcb7532e	-0.02237853
212	0xbc0d0146	-0.008606261
213	0x3d85d54e	0.06534825
214	0xbc9dbd7d	-0.019255394
215	0xbcf4297e	-0.029804941
216	0xbc387fec	-0.011260968
217	0xbd9948ff	-0.07484626
218	0x3c23a05e	0.009986965
219	0x3d8f8516	0.07007806
220	0xbd4ee48c	-0.050510928
221	0xbd68b09e	-0.05680906
222	0x3d38964b	0.045065206
223	0xbc12773b	-0.00893956
224	0x3c72a656	0.014810165
225	0x3d568cd7	0.05238041
226	0x3cd5c678	0.026095614
227	0x3b1ee756	0.0024246774
228	0xbca037a2	-0.019557778
229	0xbcd4ad8c	-0.02596166
230	0x3cc8fd2f	0.02453479
231	0x3d182115	0.037140924
232	0xba4e195f	-0.0007862057
233	0x3c0a3701	0.0084359655
234	0xbc9203f5	-0.017824152
235	0x3a11e7d0	0.0005565854
236	0xbc989aa6	-0.01862843
237	0xbc81128c	-0.015755914
238	0x3d43d94b	0.04781465
239	0xbb73cabd	-0.00371997
240	0xbc7d95e5	-0.015477632
241	0x3d9ecbfd	0.077537514
242	0x3c250699	0.010072374
243	0xba83fb09	-0.0010069321
244	0xbd69c3c3	-0.05707146
245	0x3d170a34	0.036874965
246	0xbd042a86	-0.032267116
247	0xbd8270a7	-0.06369143
248	0xbdae38f7	-0.08506959
249	0x3d9b81d6	0.075931236
250	0xbb1ff2c3	-0.0024406172
251	0xbd2571f4	-0.040391877
252	0x3c066c40	0.00820452
253	0x3d2c1bf6	0.042018853
254	0x3b416234	0.0029507997
255	0x3d8512a5	0.06497697
