model1d.ckpt (torch_old, 663450 bytes, 16 tensors)

layers_amp.0.weight f4 [128, 64]
0	0xbe05b72b	-0.13058154
1	0xbdb9a030	-0.090637565
2	0xbc1948f2	-0.00935577
3	0x3d0c52d3	0.034258675
4	0xbd2150da	-0.039383747
5	0xbb376aa1	-0.002798714
6	0x3d95bfdc	0.07311985
7	0x3dc687dd	0.096938826
8	0xbdc8eb2b	-0.0981048
9	0x3a650094	0.0008735743
10	0x3deeaa5d	0.11653588
11	0x3da3bf6d	0.07995496
12	0xbd63a3b6	-0.05557605
13	0x3d9a7f7b	0.07543846
14	0xbe0104ce	-0.12599489
15	0xbc970c9c	-0.01843863
16	0xbcad480d	-0.02115252
17	0x3d294931	0.041329566
18	0x3dd93ed8	0.106076896
19	0x3de952e2	0.11392762
20	0xbd85b654	-0.06528917
21	0x3dc9d411	0.098549016
22	0xbda5e9ca	-0.08101232
23	0x3caac25e	0.020844635
24	0x3da820f6	0.08209412
25	0x3d1735bd	0.036916483
26	0xbd81265a	-0.06306143
27	0xbd069cca	-0.03286437
28	0xbdbf5699	-0.09342689
29	0xbdeaad39	-0.11458821
30	0xbdbd13dc	-0.092323035
31	0x3d11312c	0.035447285
32	0xbd016ba0	-0.03159678
33	0xbd2b73fe	-0.041858666
34	0x3db131d5	0.08652083
35	0x3d0d0b8f	0.03443485
36	0xbd571872	-0.052513547
37	0x3ca04435	0.019563774
38	0x3d4a8740	0.04944539
39	0xbd3a3dfa	-0.04546926
40	0xbd5307e5	-0.0515212
41	0xbc32c92d	-0.010912222
42	0x3de2c368	0.11072427
43	0x3df01332	0.11722411
44	0xbdae06a4	-0.0849736
45	0x3db346f4	0.087537676
46	0xbcc7f136	-0.02440701
47	0xbd259d5f	-0.040433284
48	0x3da71d8f	0.08159935
49	0x3d8c6bec	0.06856522
50	0xbdf82ae9	-0.121175595
51	0xbd4bac0a	-0.049724616
52	0x3cc94bd5	0.024572292
53	0xbd13532a	-0.035967983
54	0x3c0d10fa	0.008610005
55	0x3daa2906	0.08308606
56	0x3d8955e5	0.06705836
57	0xbc9464a3	-0.018114394
58	0xbcb1e3fa	-0.021715153
59	0xbd2ab2d4	-0.04167445
60	0xbd1275da	-0.035756923
61	0xbc432747	-0.01191122
62	0x3d5465f5	0.051855046
63	0xbdc3f4d3	-0.09568181
64	0x3d90e66f	0.07075202
65	0x3da3c0a9	0.079957314
66	0x3c0b98fe	0.008520363
67	0xbd9dfe29	-0.07714493
68	0xbde80125	-0.11328343
69	0xbdad2dd9	-0.0845601
70	0x3d95861c	0.0730097
71	0xbca1e7c5	-0.019763837
72	0x3dd93c39	0.1060719
73	0x3d94545f	0.07242655
74	0xbde57f70	-0.112059474
75	0x3d8aa2dc	0.06769344
76	0xbc889c74	-0.016676165
77	0x3d0c29b3	0.034219455
78	0xbd605d9c	-0.054776773
79	0xbdd6fe38	-0.10497707
80	0x3dabdba3	0.08391502
81	0x3ce21c13	0.027601277
82	0xbd17e438	-0.03708288
83	0x3df88f96	0.12136762
84	0x3cb495b5	0.022044042
85	0x3df1e7dd	0.118118025
86	0x3db3f252	0.08786453
87	0xbd76dbfa	-0.06026838
88	0xbca0b63f	-0.019618152
89	0xbd5ba8a0	-0.05362761
90	0x3cc12fc5	0.023582349
91	0xbbd07c9b	-0.0063625104
92	0xbd7c0167	-0.061524775
93	0x3d959ab0	0.07304895
94	0xbd5443ee	-0.051822595
95	0xbdf1cc0f	-0.11806499
96	0xbdd8a504	-0.10578349
97	0x3d15b00c	0.036544845
98	0x3dd07026	0.101776406
99	0xbd821b53	-0.06352868
100	0x3d461e82	0.04836894
101	0x3d1d80b4	0.03845282
102	0x3da7b932	0.0818962
103	0xbd183513	-0.03715999
104	0xbd92da7e	-0.0717058
105	0xbca2e0e1	-0.019882621
106	0xbdac5c25	-0.08416013
107	0x3dde1f68	0.10845834
108	0x3d8b91b6	0.068149015
109	0x3ca4acf6	0.020102005
110	0xbd8e9d8e	-0.06963645
111	0xbdeca4d9	-0.1155488
112	0xbd1952d2	-0.0374325
113	0x3d2a8c40	0.04163766
114	0x3d8a93b5	0.06766454
115	0xbdfe2fc1	-0.12411452
116	0x3d2b1a5d	0.04177319
117	0xbdf37850	-0.11888182
118	0xbddff34b	-0.10935076
119	0xbddcc48d	-0.107796766
120	0xbded94f6	-0.11600678
121	0xbdf5a483	-0.11994269
122	0x3c93c890	0.018039972
123	0xbbeef1ed	-0.0072920234
124	0x3d32c2b1	0.043642703
125	0xbde9122c	-0.11380419
126	0x3cfc789f	0.030819235
127	0xbc2ab3f0	-0.010418877
128	0xbda83226	-0.0821269
129	0x3da904ed	0.08252893
130	0x3c970356	0.018434208
131	0x3dea4bd5	0.11440245
132	0xbd346697	-0.04404315
133	0x3ba3724d	0.004987991
134	0x3c959305	0.018258581
135	0xbbf3cbb6	-0.0074400557
136	0x3cb0b71f	0.021571694
137	0x3d7ba12d	0.061433006
138	0xbda78a91	-0.08180726
139	0x3d4d3d0b	0.050107043
140	0xbd3cae74	-0.04606481
141	0xbd8c175b	-0.06840392
142	0xbda2600d	-0.079284765
143	0xbdd2ceef	-0.10293376
144	0x3d62c520	0.055363774
145	0xbddc634a	-0.107611254
146	0xbb7a0ef6	-0.003815589
147	0xbc546207	-0.012962825
148	0x3c4c2e6c	0.01246224
149	0x3d981ac0	0.07426977
150	0x3dbbf3f2	0.09177388
151	0x3c99c76a	0.018771846
152	0x3ca9d4a4	0.020731278
153	0xbbf483b9	-0.0074619916
154	0x3d68b3d0	0.056812108
155	0xbd4733d8	-0.048633426
156	0xbc4e4879	-0.012590521
157	0xbd28cbd1	-0.04121
158	0x3def1162	0.116732374
159	0x3dff40d1	0.124635346
160	0x3c6b3f1a	0.014358306
161	0xbca98c2c	-0.020696722
162	0x3c98a8f7	0.018635256
163	0x3dbc182d	0.09184299
164	0xbd5fc45b	-0.05463062
165	0x3c40aca4	0.011759911
166	0xbcda1252	-0.026620064
167	0x3d9ba940	0.07600641
168	0xbdf31843	-0.11869862
169	0xbe043702	-0.12911609
170	0xbd4daf9e	-0.05021631
171	0x3d78e0f8	0.060761422
172	0x3cbe7800	0.02325058
173	0xbc0bc52f	-0.008530899
174	0xbd817c3b	-0.06322523
175	0x3db35974	0.08757296
176	0xbd89bc8d	-0.06725416
177	0x3db804bd	0.08985279
178	0xbddc3dbe	-0.10753964
179	0xbcec8b7e	-0.028875109
180	0xbd34a9ac	-0.044107124
181	0xbdc6f545	-0.0971475
182	0x3c1d0843	0.009584489
183	0x3b8ca27f	0.004291832
184	0x3d70e971	0.058816377
185	0x3ddf0318	0.10889262
186	0x3d4ad27d	0.049517144
187	0xbc80af32	-0.01570854
188	0x3da93511	0.08262075
189	0xbce4a7fb	-0.02791213
190	0x3b8742f7	0.004127856
191	0x3d9c8cfa	0.07644077
192	0xbd87dd7c	-0.06634042
193	0xbd72f49c	-0.05931531
194	0x3dc8c1c0	0.0980258
195	0xbd7c7f03	-0.061644565
196	0x3d79d6bb	0.0609958
197	0x3db1fa46	0.08690314
198	0x3dd3baf1	0.103383906
199	0xbc1dc75a	-0.009630049
200	0xbdd9aa66	-0.10628204
201	0x3de7718d	0.11300955
202	0x3d1e9d10	0.038724005
203	0x3de51410	0.11185467
204	0xbd8348e1	-0.06410385
205	0xbd9f9bb1	-0.07793368
206	0x3d0bb9bb	0.034112673
207	0x3da9a861	0.08284069
208	0x3d91d853	0.07121339
209	0xbd66b6c3	-0.05632664
210	0x3dedad9b	0.11605378
211	0x3d68c18d	0.05682521
212	0x3d1db5aa	0.038503326
213	0x3da3d223	0.07999065
214	0xbc544f99	-0.012958431
215	0xbdb8f67b	-0.090313874
216	0x3d412ec6	0.047163747
217	0x3d8be2e3	0.068303846
218	0xbd5e808d	-0.054321814
219	0x3d0f6731	0.03501052
220	0x3df49e84	0.11944297
221	0xbc22c320	-0.009934217
222	0x3d235c8c	0.03988318
223	0x3d965072	0.073395625
224	0xbd9daca1	-0.07698942
225	0xbdcf4017	-0.10119646
226	0xbd0756b3	-0.033041667
227	0x3b465143	0.0030260838
228	0xbb43d437	-0.0029881129
229	0xbdedf209	-0.1161843
230	0x3dcb87f0	0.099380374
231	0xbd8a2cdc	-0.067468375
232	0xbd925abb	-0.07146212
233	0xbb6981ce	-0.0035630348
234	0xbd8b2d46	-0.067957446
235	0xbdff54f2	-0.12467374
236	0xbdb4bfbb	-0.08825632
237	0xbde6de20	-0.11272836
238	0x3d9e78a1	0.07737852
239	0xbd268989	-0.040658507
240	0xbd58f317	-0.052966204
241	0x3ca68d90	0.020331174
242	0xbde850bb	-0.11343523
243	0xbc40e16b	-0.011772494
244	0xbc81812f	-0.01580867
245	0x3cc83d0c	0.024443172
246	0x3d727697	0.059195127
247	0x3da35e7d	0.079770066
248	0xbc828920	-0.015934527
249	0x3d8805f6	0.06641762
250	0xbcfd1c1b	-0.03089719
251	0x3d07b516	0.03313168
252	0xbd5a6b97	-0.053325262
253	0xbce550a2	-0.02799255
254	0x3d40d610	0.047079146
255	0xbdce12e3	-0.10062196

layers_amp.0.bias f4 [128]
0	0xbd6d8805	-0.057991046
1	0x3c198fa0	0.009372622
2	0x3df40ea4	0.11916855
3	0x3db69cf3	0.089166544
4	0xbd676440	-0.05649209
5	0xbd073ae7	-0.033015158
6	0x3c563e94	0.013076443
7	0xbd0ef03e	-0.03489708
8	0xbdc0e15c	-0.09417984
9	0xbdd3aba7	-0.103354745
10	0xbc0fd179	-0.0087779695
11	0x3de71d42	0.11284877
12	0xbcc3eff5	-0.023918131
13	0x3cf4f9f5	0.029904345
14	0x3d50d52e	0.050984554
15	0x3d764410	0.060123503
16	0x3d129c21	0.035793427
17	0x3d689ab0	0.056788146
18	0xbd84a695	-0.064770855
19	0xbdd31167	-0.103060536
20	0xbdbb0605	-0.091320075
21	0x3b875477	0.004129942
22	0xbd9f225b	-0.07770225
23	0x3d5c5eea	0.053801455
24	0xbdec925c	-0.11551353
25	0x3dae5b09	0.08513457
26	0x3b9443db	0.0045246906
27	0xbdd3745d	-0.10324929
28	0xbd288413	-0.04114158
29	0xbdbbf53b	-0.091776334
30	0xbcbfae42	-0.023398522
31	0x3e0600ae	0.13086197
32	0x3dce1934	0.10063401
33	0xbdbec730	-0.09315336
34	0xbd221eb9	-0.03958008
35	0x3dbd364d	0.09238873
36	0x3e032161	0.12805702
37	0x3de16af1	0.110067256
38	0x3d2f9dee	0.042875223
39	0x3d736025	0.059417862
40	0x3de9aa13	0.11409392
41	0x3d141d51	0.03616077
42	0xbc3bc43f	-0.011460363
43	0xbd9b4c28	-0.07582885
44	0xbd84f83d	-0.0649266
45	0x3d64f349	0.055896077
46	0x3debad84	0.11507705
47	0xbdab13ec	-0.08353409
48	0x3d2b2c33	0.0417902
49	0xbd88ee85	-0.06686119
50	0xbd11796c	-0.035516188
51	0x3baeb371	0.0053314497
52	0x3c1a511d	0.009418753
53	0x3da198ab	0.07890447
54	0x3dc8a9f0	0.09798038
55	0x3d3f2ce9	0.04667369
56	0x3d5d141e	0.053974263
57	0xbd85c9f3	-0.065326594
58	0x3d8b8b85	0.068137206
59	0x3d5e0a76	0.054209195
60	0x3c95851b	0.018251946
61	0xbd8acf2d	-0.06777797
62	0xbd8019dd	-0.06254933
63	0x3da5ae17	0.08089846
64	0x3d0b4c46	0.034008287
65	0x3c8dc542	0.017305974
66	0xbde0bf6d	-0.109740116
67	0xbdd6a2b1	-0.1048025
68	0x3dd8e120	0.10589814
69	0x3d05bcd0	0.03265077
70	0x3cc9d79c	0.024638943
71	0x3d22bd8a	0.03973154
72	0xbd6ec82d	-0.05829637
73	0x3c908353	0.017640745
74	0x3c40d17e	0.011768697
75	0x3ba1db6a	0.0049394863
76	0x3e03fed2	0.12890175
77	0xbd8467e2	-0.064651266
78	0xbd95f27b	-0.0732164
79	0x3e058dc5	0.13042362
80	0x3d817e62	0.06322934
81	0xbde8bf40	-0.11364603
82	0x3dc9f5d9	0.09861345
83	0x3d8bee64	0.06832579
84	0xbc37c1e5	-0.011215662
85	0xbde40bb0	-0.11135042
86	0x3df6136c	0.12015423
87	0x3d5045d0	0.05084783
88	0xbd5c4671	-0.053778116
89	0xbe012c34	-0.12614518
90	0xbc0740b5	-0.008255173
91	0xbd991a11	-0.07475675
92	0x3ca3cb71	0.01999447
93	0x3deaa908	0.114580214
94	0x3c9b0ef6	0.018928032
95	0x3d6f4d8d	0.058423568
96	0xb7b419bf	-2.1469661e-05
97	0xbc60f124	-0.013729367
98	0x3c78ea4b	0.015192579
99	0x3dee7e5d	0.11645196
100	0x3d66739a	0.05626259
101	0x3d4acadb	0.049509864
102	0xbadcb869	-0.0016839626
103	0x3d78a172	0.06070084
104	0x3dc5c946	0.096575305
105	0x3d8ce8df	0.06880354
106	0x3da21352	0.07913841
107	0xbde0821c	-0.109623164
108	0xbd984c02	-0.07436372
109	0x3dce5c60	0.10076213
110	0x3e00e96f	0.12589048
111	0xbdb3b150	-0.08774054
112	0x3d54ec36	0.05198308
113	0xbc8ee905	-0.017445097
114	0x3d8b1d6f	0.067927234
115	0x3de55289	0.11197383
116	0x3ca5c910	0.020237476
117	0xbcdb76c3	-0.026790028
118	0xbdb69ef4	-0.08917037
119	0xbc31f120	-0.010860711
120	0xbd814ca1	-0.06313444
121	0x3dc808e6	0.09767322
122	0xbdcff067	-0.10153275
123	0x3de9c196	0.11413877
124	0x3de89bf4	0.11357871
125	0xbd849454	-0.06473604
126	0x3ccdb026	0.025108408
127	0x3d94b194	0.07260433

layers_amp.1.weight f4 [256, 128]
0	0xbd298c48	-0.04139355
1	0x3d975071	0.0738839
2	0x3d98335d	0.07431672
3	0x3d5c4750	0.053778946
4	0xbd946b24	-0.07246998
5	0xbb144b65	-0.0022627946
6	0xbd53d26e	-0.051714353
7	0x3d615663	0.055014025
8	0x3bebea6d	0.0071995766
9	0xbc608001	-0.0137023935
10	0x3d4be806	0.04978182
11	0x3da6157b	0.08109566
12	0xbd964c52	-0.07338776
13	0x3d0825c9	0.03323916
14	0x3ca0a098	0.019607827
15	0x3b777fac	0.0037765307
16	0x3d2175b0	0.039418876
17	0x3d8e0b76	0.0693578
18	0x3d0fbcfe	0.035092346
19	0xbda34bc8	-0.079734385
20	0xbd538688	-0.05164197
21	0x3be39462	0.006945179
22	0xbda69404	-0.081337005
23	0x3d48b4d2	0.04900057
24	0x3d3a0420	0.04541409
25	0x3bceba3d	0.0063088224
26	0xbd620ccd	-0.05518799
27	0xbd35436a	-0.044253744
28	0xbd8df61d	-0.06931708
29	0x3d9b36b5	0.07578794
30	0xb82e451e	-4.1549203e-05
31	0xbd99f302	-0.07517053
32	0xbd8b99c5	-0.068164386
33	0xbc1283e7	-0.008942581
34	0x3d8e97b3	0.06962528
35	0xbdab0f94	-0.08352581
36	0x3d0ac73a	0.033881404
37	0xbd869e98	-0.06573218
38	0x3c8e13ef	0.01734349
39	0x3d069718	0.032858938
40	0xbc8268ee	-0.015919175
41	0xbd81c849	-0.063370295
42	0xbd1fabde	-0.038982265
43	0x3980a064	0.00024533563
44	0x3d0337f9	0.0320358
45	0x3d2fb713	0.042899203
46	0x3c226b57	0.009913287
47	0x3ce94466	0.028474998
48	0xbd473e73	-0.04864354
49	0xbca2f619	-0.01989274
50	0x3d420150	0.047364533
51	0x3c005926	0.007833755
52	0xbd8b1f20	-0.06793046
53	0xbda1ac24	-0.07894161
54	0x3d16df81	0.036834244
55	0x3cce69d5	0.025196949
56	0x3da0b223	0.07846477
57	0xbd7ed260	-0.062212348
58	0x3d80f3eb	0.06296524
59	0x3d50053f	0.050786253
60	0xbd75d229	-0.060014877
61	0xbd8d9522	-0.069132105
62	0xbda2d501	-0.079507835
63	0xbc5bbced	-0.013411743
64	0x3da34c55	0.079735436
65	0x3c7f0767	0.01556573
66	0x3c8d5754	0.017253555
67	0xbd998827	-0.07496672
68	0x3d484d03	0.04890157
69	0xbcc5f712	-0.024165664
70	0x3d75edf5	0.060041387
71	0xbd641d34	-0.055691913
72	0xbcd986a9	-0.026553469
73	0x3cafec25	0.021474907
74	0x3da5ba42	0.080921665
75	0x3ce64bb5	0.028112272
76	0xbcf61a78	-0.030041918
77	0xbb266f7d	-0.0025396042
78	0x3c305502	0.010762455
79	0x3d87a8ec	0.06624016
80	0x3c0c992b	0.00858144
81	0x3cc25158	0.023720428
82	0x3d0612ab	0.032732647
83	0xbd5bf88b	-0.053703826
84	0xbd9ce09f	-0.076600306
85	0xbcc7b49c	-0.024378113
86	0x3d56e484	0.052464023
87	0x3b7999c7	0.0038086043
88	0xbbc85aa6	-0.0061143218
89	0x3dad7c33	0.08470955
90	0xbd0008ad	-0.031258274
91	0x39f6c8f8	0.0004707051
92	0x3d3e50de	0.04646384
93	0x3cf85d58	0.030317947
94	0xbd0a9a0d	-0.03383832
95	0xbd9cefe0	-0.0766294
96	0xbd4945ff	-0.04913902
97	0x3dad66eb	0.08466896
98	0xbc7f57a2	-0.015584858
99	0xbbbbbf7a	-0.005729613
100	0xbd73dbe0	-0.05953586
101	0xbbc34ddf	-0.0059602107
102	0x3d639d2a	0.055569805
103	0x3d846571	0.06464661
104	0xbd270211	-0.040773455
105	0x3d3e43c3	0.04645134
106	0x3d00e8bc	0.031471953
107	0x3c2d639b	0.01058283
108	0xbd98ec84	-0.07466987
109	0x3d3b3ec0	0.04571414
110	0xbb69ae55	-0.0035656889
111	0xbc120390	-0.008911982
112	0xbc66409e	-0.014053492
113	0x3d12e836	0.035865985
114	0xbd31b8ad	-0.04338901
115	0xbcdf35f3	-0.027247405
116	0xbd82064f	-0.063488595
117	0xbdb2730a	-0.08713348
118	0x3cc049b6	0.023472648
119	0x3d967757	0.07346981
120	0x3d1c7612	0.038198538
121	0xbd9ca2e2	-0.07648255
122	0xbbf3bcb2	-0.0074382657
123	0x3dac6706	0.08418088
124	0xbc95c475	-0.018282155
125	0x3d374938	0.04474756
126	0x3d5d9702	0.05409909
127	0x3cb17e4d	0.02166667
128	0x3d9e75c9	0.077373095
129	0xbce15e8d	-0.027510906
130	0x3bacecfd	0.0052772746
131	0x3d304719	0.043036554
132	0x3d3ac731	0.04560012
133	0xbd85bea2	-0.06530501
134	0x3d4d0e60	0.050062537
135	0x3db4e01b	0.08831807
136	0x3d880e8a	0.06643398
137	0x3d6c54a6	0.057697915
138	0x3c8cb952	0.017178211
139	0xbd17d717	-0.03707036
140	0xbd6c2edd	-0.05766188
141	0x3d63470d	0.05548768
142	0x3cad445f	0.021150766
143	0x3d2ebf18	0.04266271
144	0xbca304df	-0.019899784
145	0xbc5dc3e4	-0.0135354735
146	0xbd127ab4	-0.03576155
147	0xbd67a25a	-0.056551315
148	0xbd81b4c0	-0.063333035
149	0xbcac5c15	-0.021040002
150	0xbd0a4839	-0.033760283
151	0x3da18688	0.07886988
152	0x3ba6ac4e	0.0050864583
153	0xbd544c83	-0.05183078
154	0x3c844bd4	0.016149439
155	0xbd2539ae	-0.04033821
156	0xbd627607	-0.05528834
157	0xbd40b358	-0.047046036
158	0xbd4c0e99	-0.04981861
159	0xbd6176d6	-0.05504497
160	0x3d9e40b3	0.07727184
161	0x3d7a648c	0.061131045
162	0x3d8733df	0.066016905
163	0x3d95f5e6	0.07322292
164	0x3d90282d	0.07038913
165	0xbda37f2f	-0.07983243
166	0xbdb4c70f	-0.0882703
167	0xbda36940	-0.07979059
168	0xbd0ec7be	-0.034858458
169	0xbca4d101	-0.020119192
170	0x3cd1b085	0.025596866
171	0xbd112290	-0.035433352
172	0x3d540c51	0.05176956
173	0xbc7b575e	-0.015340654
174	0x3da718e4	0.081590444
175	0x3d38cf4c	0.04511957
176	0xbdbad925	-0.09123448
177	0xbbd7b2c0	-0.006582588
178	0x3b8b8d89	0.0042588157
179	0xbd10016e	-0.035157613
180	0xbd3dc9fe	-0.046335213
181	0x3d4f8412	0.05066306
182	0x3cc8ce54	0.024512447
183	0x3d750df7	0.05982777
184	0xbd519ca2	-0.051174767
185	0xbd8c5052	-0.068512574
186	0x3c52ddd4	0.012870271
187	0x3d75541e	0.059894674
188	0x3d077487	0.033070114
189	0xbd9abcfd	-0.07555578
190	0xbd293794	-0.04131277
191	0xbd3643f1	-0.044498388
192	0x3d8803ae	0.06641327
193	0xbda8c656	-0.082409546
194	0xbd0552ed	-0.032549787
195	0x3d0bf0af	0.03416508
196	0xbd8c9809	-0.06864936
197	0xbbe7520e	-0.007059342
198	0xbc420378	-0.011841647
199	0xbb8dfda8	-0.0043332167
200	0xbd99540a	-0.07486732
201	0xbd2aab6a	-0.04166738
202	0x3dab81f7	0.08374398
203	0xbc74a2fc	-0.014931437
204	0xbd34fafe	-0.044184677
205	0xbca5f50d	-0.02025845
206	0xbcaa8ab6	-0.020818096
207	0xbb747c6f	-0.0037305614
208	0xbd2df85e	-0.04247319
209	0xbda4ea4d	-0.08052502
210	0x3b860d61	0.0040909504
211	0x3d9e50e3	0.07730272
212	0xbd22c544	-0.03973891
213	0x3c3bae26	0.011455094
214	0x3c7929cf	0.015207722
215	0x3d84ca52	0.06483902
216	0xbca25ee7	-0.019820644
217	0x3ca93a90	0.020657808
218	0x3d4c2cf1	0.049847547
219	0xbd23faf9	-0.040034268
220	0xbcc979cf	-0.024594216
221	0x3dbb740d	0.09152994
222	0xbd095358	-0.03352675
223	0xbd00c9fa	-0.03144262
224	0x3d5448d4	0.051827267
225	0xbdab31b3	-0.08359089
226	0x3da89b74	0.08232775
227	0x3d80ac0b	0.062828146
228	0x3d3d6eac	0.046248123
229	0x3d5f01e8	0.054445177
230	0x3badfd40	0.005309731
231	0x3d7355f6	0.05940815
232	0x3b9c6ab7	0.0047734636
233	0x3d1160e2	0.035492785
234	0xbbb9a778	-0.005665716
235	0x3d7b81eb	0.061403196
236	0xbc5fdf1c	-0.013664033
237	0xbda65a71	-0.08122719
238	0xbbf210a4	-0.0073872376
239	0xbd1d1c1d	-0.03835689
240	0xbd30eaf8	-0.043192834
241	0x3d765b69	0.06014577
242	0x3a43412b	0.00074483705
243	0xbdadfbaf	-0.084952705
244	0xbd641770	-0.055686414
245	0x3d29bcb3	0.041439723
246	0x3d8d02d8	0.06885308
247	0x3d642749	0.055701528
248	0xbc7aeb14	-0.015314836
249	0x3b834cf5	0.0040069767
250	0x3d91bb1c	0.071157664
251	0x3d940a3f	0.07228517
252	0xbd0406ea	-0.032233156
253	0xbc88ae7f	-0.016684769
254	0xbc172fd6	-0.009227714
255	0x3c38c8d5	0.011278351

layers_amp.1.bias f4 [256]
0	0xbd4147b5	-0.047187526
1	0xbd386eab	-0.045027416
2	0xbd4bc0d4	-0.049744442
3	0xbd83a091	-0.0642711
4	0x3c903d37	0.017607315
5	0x3c3d23d6	0.0115441885
6	0x3d1ee4c8	0.0387924
7	0x3d95ef4e	0.07321034
8	0xbd780b94	-0.060557917
9	0x3d96a029	0.07354767
10	0xbd844854	-0.06459108
11	0xbd8ad9f5	-0.06779853
12	0x3d9047af	0.070449226
13	0x3db90937	0.09034961
14	0x3ca94dd6	0.020666998
15	0x3d20cadb	0.039255958
16	0x3d450cfa	0.04810808
17	0x3d934e81	0.07192708
18	0x3d259306	0.040423416
19	0xba58778a	-0.0008257559
20	0xbd8f1e0e	-0.06988154
21	0x3cb23ee2	0.0217585
22	0x3c0140d9	0.007888996
23	0xbd43bfae	-0.047790222
24	0xbd896250	-0.06708205
25	0x3d462ac6	0.048380636
26	0x3d5ead26	0.054364346
27	0xbd31c24d	-0.04339819
28	0x3d453273	0.048143815
29	0xbd8ff09d	-0.07028315
30	0x3c082e07	0.008311755
31	0xbd85eb6c	-0.06539044
32	0x3d99f38f	0.07517158
33	0x3d8c3ba6	0.068473145
34	0x3ceadde1	0.028670253
35	0xbc9f12d5	-0.01941816
36	0xbd8f204d	-0.06988583
37	0xbc98d5a9	-0.018656569
38	0xbd5d85fb	-0.05408285
39	0x3d82cce1	0.06386734
40	0xbd680baa	-0.05665175
41	0xbb81935f	-0.0039543356
42	0x3b48c080	0.0030632317
43	0xbc817648	-0.015803471
44	0xbdaa237e	-0.08307551
45	0x3d4ee4f2	0.050511308
46	0x3c715051	0.014728622
47	0x3c28096b	0.010256152
48	0xbcfb6550	-0.030687958
49	0xbd42fe76	-0.047605954
50	0x3d4f6b8c	0.050639674
51	0xbd90eedd	-0.070768096
52	0x3da41f1e	0.08013748
53	0x3dab66d1	0.0836922
54	0x3c8557bd	0.016277188
55	0x3d63fe90	0.05566269
56	0xbd9c0d35	-0.076197065
57	0x3cc058f8	0.023479924
58	0x3b6e68da	0.0036378414
59	0x3d6adeb9	0.05734131
60	0xbd7d8ed2	-0.061903782
61	0xbd805596	-0.06266324
62	0xbd93b93f	-0.07213067
63	0x3d48c674	0.049017385
64	0x3ced8d07	0.028997911
65	0x3cf57c38	0.029966459
66	0x3d8db24d	0.06918774
67	0xb9ab27b3	-0.0003264524
68	0x3cecd396	0.028909486
69	0xbcf27974	-0.029598929
70	0xbc716fe4	-0.014736149
71	0x3ce50907	0.027958406
72	0x3d7922f4	0.06082435
73	0xbc0ba202	-0.008522512
74	0x3d00eae9	0.031474028
75	0x3d65226b	0.055941027
76	0xbc4f1f5d	-0.012641755
77	0xb993a6cb	-0.00028162295
78	0x3d69c277	0.05707022
79	0x3db18324	0.08667591
80	0x3d56f78e	0.05248218
81	0xbcad3a71	-0.021146031
82	0xbc93cefa	-0.01804303
83	0xbd8023de	-0.06256841
84	0x3d5b2662	0.0535034
85	0x3b83817d	0.004013239
86	0xbce1e4c1	-0.027574899
87	0x3c532b96	0.01288881
88	0xbd2b618a	-0.041841067
89	0x3d1b92e4	0.037981883
90	0xbd19ec9a	-0.037579156
91	0x3cfc2346	0.030778538
92	0xbceb7fec	-0.028747521
93	0xbd0f62f6	-0.035006486
94	0xbcd90e15	-0.026495973
95	0xbca1752c	-0.019709192
96	0xbaac41cd	-0.0013142169
97	0x3d810253	0.062992714
98	0x3d7e23c1	0.062045816
99	0x3d683fe7	0.056701567
100	0x3cebafe0	0.028770387
101	0x3d670b90	0.05640751
102	0x3c0eaa35	0.008707573
103	0xbc933389	-0.01796891
104	0x3d4ddd92	0.050260134
105	0xbda58e10	-0.08083737
106	0xbd1962fe	-0.037447922
107	0xbd857619	-0.06516666
108	0xbd4aeab6	-0.049540244
109	0x3d2d28d4	0.042275265
110	0x3d05a551	0.03262836
111	0x3d8a8a6e	0.067646846
112	0x3da1b1f5	0.07895271
113	0xbd5b6d72	-0.053571172
114	0xbd9b280f	-0.07576
115	0xbd1479e5	-0.03624906
116	0xbd63e9e1	-0.055642966
117	0x3da6fd59	0.08153791
118	0xbd73a47e	-0.059483044
119	0xbd8a3741	-0.0674882
120	0xbd900501	-0.070322044
121	0x3cea6a8d	0.02861526
122	0x3d5a73f9	0.053333256
123	0x3d53bca6	0.05169358
124	0xbd6d3d4d	-0.05791979
125	0xbcd1ae15	-0.025595704
126	0xbd6caa66	-0.057779692
127	0x3cf41e2d	0.029799545
128	0x3da1056d	0.07862363
129	0xbd5f76c2	-0.054556616
130	0x3da7a583	0.08185866
131	0x3dbae5a9	0.091258354
132	0x3d33e371	0.043918077
133	0xbc2559f0	-0.010092244
134	0x3cde1041	0.02710736
135	0xbc938685	-0.01800848
136	0xbd72f1c2	-0.05931259
137	0xbd9d8431	-0.07691229
138	0x3da31208	0.079624236
139	0xbd6d3aa5	-0.057917256
140	0xbd8ed489	-0.069741316
141	0x3d8b9cd0	0.06817019
142	0xbd2068ae	-0.03916233
143	0xbd99bebf	-0.07507085
144	0x3b9dfac4	0.0048211534
145	0xbcb09b08	-0.0215583
146	0x3d5527a6	0.052039765
147	0x3d479740	0.048728228
148	0xbd934645	-0.07191137
149	0xbdaa5081	-0.08316136
150	0xbd8f7e44	-0.07006505
151	0x3daaf104	0.08346751
152	0xbd28fbd4	-0.041255787
153	0x3d878c4f	0.066185586
154	0xbccb3465	-0.024805257
155	0xbbbe6287	-0.005810085
156	0x3b19be99	0.0023459552
157	0x3ceb8515	0.028749982
158	0x3d44d1c3	0.048051607
159	0x3da7e443	0.08197834
160	0x3cc5a766	0.024127673
161	0x3d4e7141	0.050400976
162	0xbdc02401	-0.09381867
163	0xbc9444c9	-0.018099206
164	0xbdb45c1f	-0.08806633
165	0xbcbc1830	-0.022960752
166	0x3d1c5dec	0.03817551
167	0x3d9dc19f	0.07702946
168	0x3d00b124	0.031418934
169	0x3cdaa284	0.026688822
170	0xbc048d59	-0.0080903405
171	0x3d8aa685	0.06770042
172	0xbcf3d3fe	-0.029764172
173	0xbd7ef713	-0.062247347
174	0x3d7b1a75	0.06130453
175	0xbbcc2fa2	-0.006231264
176	0xbbabe6a9	-0.0052460027
177	0x3d7aa616	0.06119355
178	0xbcb47f3b	-0.022033324
179	0x3da33a38	0.07970089
180	0xbd5ef63a	-0.05443404
181	0x3ae0cdbf	0.0017151161
182	0x3948ab58	0.00019137317
183	0x3d50dd87	0.050992515
184	0xbd9a4e17	-0.07534426
185	0x3d90cdba	0.07070489
186	0xbd510318	-0.05102834
187	0xbd7604fe	-0.060063355
188	0xbd31c84f	-0.04340392
189	0x3da8b7cb	0.08238181
190	0x3d82bb34	0.063833624
191	0x3d3ed6d5	0.0465916
192	0x3d53ac48	0.051677972
193	0xbd9b0034	-0.07568398
194	0x3d6d0087	0.05786183
195	0xbc37bea9	-0.0112148905
196	0xbc75a173	-0.014992106
197	0xbd95e37d	-0.073187806
198	0xbd333a77	-0.04375693
199	0x3c9b03d8	0.018922731
200	0x3d712eb1	0.05888242
201	0x3c022b78	0.007944934
202	0x3c9cfc97	0.019163413
203	0x3d189c80	0.037258625
204	0xbc4c9db4	-0.012488771
205	0x3c37eb6a	0.011225561
206	0x3db03442	0.086037174
207	0x3d32fbff	0.043697353
208	0xbd6c8f66	-0.057753943
209	0xbd994f55	-0.074858345
210	0x3d8c86de	0.068616614
211	0x3ad71455	0.0016409258
212	0x3d2e1bb3	0.042506885
213	0xbc825a85	-0.015912304
214	0x3d94cafe	0.0726528
215	0xbcfb3b55	-0.03066794
216	0xbd9ace96	-0.075589344
217	0xbc9dab3f	-0.019246696
218	0xbd4f8bbb	-0.050670367
219	0x3cd3f1b7	0.025872095
220	0xbd8d1395	-0.068885006
221	0xbac4c62e	-0.0015012675
222	0xbd8bf7c9	-0.06834371
223	0xbd4175ed	-0.047231603
224	0xbd6817f2	-0.05666346
225	0xbd809660	-0.06278682
226	0xbda48394	-0.08032909
227	0xbd6250f3	-0.05525298
228	0x3dbb8a79	0.09157271
229	0x3d9a45a8	0.07532817
230	0x3d92ab62	0.07161595
231	0xbd84fbfb	-0.06493374
232	0xbcccef91	-0.025016578
233	0xbd8eb469	-0.06968004
234	0x3cbacda5	0.022803137
235	0x3d169cdf	0.036770698
236	0x3d1f5a7c	0.038904652
237	0x3d8f81d8	0.070071876
238	0x3d027954	0.03185399
239	0x3c1da9d4	0.00962301
240	0x3d9b1add	0.07573483
241	0x3db9e577	0.0907697
242	0x3dad98e7	0.084764294
243	0x3d91ead5	0.07124869
244	0xbd9ace3f	-0.075588696
245	0x3da8bbcf	0.08238947
246	0xbd8bf407	-0.06833654
247	0xbc74fdd3	-0.014953095
248	0x3c67ab24	0.014139924
249	0xbd906d41	-0.070520885
250	0xbd93721c	-0.07199499
251	0xbdab262d	-0.08356891
252	0x3d806d1c	0.06270811
253	0x3ce08f14	0.027411975
254	0xbd5d0109	-0.053956065
255	0x3d5ee2af	0.0544154

layers_amp.2.weight f4 [128, 256]
0	0x3aa35940	0.0012462512
1	0xbc290c05	-0.010317807
2	0xbce3d017	-0.027809186
3	0xbd18b8d2	-0.037285633
4	0x3cb02dc9	0.021506207
5	0x3ca57a4d	0.02019992
6	0xbcb27717	-0.021785302
7	0x3b9febff	0.004880428
8	0xbcf45179	-0.029824005
9	0xbc5b267e	-0.0133758765
10	0x3bc898e9	0.006121744
11	0xbcd013eb	-0.025400123
12	0x3c2c6431	0.010521934
13	0x3cb7ae65	0.022422025
14	0xbd248ba1	-0.040172223
15	0x3d144ad6	0.03620418
16	0x3d7f5c94	0.06234415
17	0x3b9b25e2	0.0047347406
18	0x3c36e78e	0.011163605
19	0x3d5e709b	0.054306608
20	0x3c1e23c4	0.009652082
21	0x3d409de2	0.04702557
22	0xbd2da43c	-0.042392954
23	0xbc3c73d5	-0.011502226
24	0xbd51c95c	-0.051217422
25	0xbcaf492d	-0.021397198
26	0xbd1cde26	-0.038297795
27	0xbb62889d	-0.003456629
28	0xbce7f587	-0.028315319
29	0x3c332150	0.010933235
30	0xbd292a40	-0.04130006
31	0xbcae3a8d	-0.021268154
32	0x3d0e8366	0.03479328
33	0xb98d6d42	-0.0002697502
34	0x3d4588ee	0.04822629
35	0x3bbd6bd6	0.0057806773
36	0xbd44cbee	-0.048046045
37	0xbcb78af1	-0.02240512
38	0xbcadbdbd	-0.021208638
39	0x3b38a534	0.002817464
40	0x3d1adcc7	0.037808206
41	0x3ccde050	0.025131375
42	0x3cf069dc	0.029347353
43	0xbd30ffbf	-0.04321265
44	0x3d824dc9	0.063624926
45	0x3b14c171	0.0022698308
46	0xbbd95da7	-0.0066334787
47	0xbcdf1ac0	-0.027234435
48	0xbd5bb251	-0.053636853
49	0xbca0654d	-0.019579554
50	0x3d01f4cc	0.031727597
51	0x3ce7d343	0.02829898
52	0x3b1b2e95	0.0023678888
53	0x3d40fe92	0.047117777
54	0xbd0c98be	-0.034325354
55	0x38621f1f	5.3911583e-05
56	0x3cb84a29	0.0224963
57	0x3d480e57	0.0488418
58	0xbd20fa4e	-0.03930121
59	0xbd0618ab	-0.03273837
60	0xbca07703	-0.019588
61	0xbd49f0d8	-0.049301952
62	0xbd444a30	-0.047922313
63	0xbc1b674c	-0.009485077
64	0xbcf408db	-0.029789379
65	0x3d16defe	0.036833756
66	0xbcdc9be9	-0.026929813
67	0xbc9aa712	-0.018878493
68	0xbd382d05	-0.04496481
69	0xbd26fd7a	-0.040769078
70	0xbbbf8576	-0.005844767
71	0x3d04b884	0.03240253
72	0xbcf6d79f	-0.030132113
73	0xbc7a9d63	-0.015296313
74	0xbd0887cc	-0.03333263
75	0x3d7159d1	0.058923546
76	0xbcf2a66c	-0.029620372
77	0xbd3090b8	-0.043106765
78	0x3d4c7b2c	0.049922153
79	0xbd5c23db	-0.053745132
80	0x3d06f742	0.032950647
81	0x3d6f4f04	0.058424965
82	0x3d5464dc	0.051854
83	0x3cd91fc0	0.026504397
84	0xbd1c6973	-0.0381865
85	0x3d78b747	0.060721662
86	0x3cd263ae	0.025682297
87	0xbd60c139	-0.05487177
88	0x3cb3d501	0.021952154
89	0xbd3b008d	-0.045654822
90	0xbbc5b552	-0.006033578
91	0xbd3b0628	-0.045660168
92	0x3d69d534	0.057088092
93	0xbcccb689	-0.024989383
94	0x3d0f9616	0.035055242
95	0x3d74a23e	0.05972504
96	0x3d093199	0.033494566
97	0xbcc2dee5	-0.023787925
98	0xbcfe351a	-0.03103118
99	0x3c831095	0.015999118
100	0x3d012f35	0.03153916
101	0x3d82bcdb	0.063836776
102	0xbd002a60	-0.031290412
103	0xbbd1616d	-0.006389788
104	0x3d843767	0.0645588
105	0xbc80ac50	-0.015707165
106	0x3d669565	0.056294817
107	0x3ce6b46b	0.028162202
108	0xbccea7ba	-0.025226463
109	0x3baae191	0.005214878
110	0xbcc6148f	-0.024179725
111	0xbd1fe113	-0.039033007
112	0x3d472062	0.048614867
113	0x3d79b124	0.06095995
114	0xbc985def	-0.018599479
115	0x3d8798af	0.06620919
116	0x3c1a8174	0.009430278
117	0xbc869796	-0.016429704
118	0x3d4ed53b	0.05049632
119	0xbd2acf6b	-0.041701715
120	0x3d215bec	0.039394304
121	0xbbb60266	-0.005554485
122	0xbab2642d	-0.0013610177
123	0xbcf7a974	-0.030232169
124	0xbbf09606	-0.007342103
125	0xbcf0ceff	-0.029395578
126	0xbc9a00dd	-0.01879924
127	0x3d1f379e	0.0388714
128	0xbd0d8ef3	-0.034560155
129	0x3d656b21	0.05601037
130	0x3d5338bd	0.05156778
131	0xbd340533	-0.04395027
132	0x3d56e88d	0.05246787
133	0xbcda45b8	-0.026644573
134	0x3d3f159b	0.046651464
135	0x3c318d82	0.010836961
136	0xbc8e7e5e	-0.017394241
137	0x3d2b2799	0.04178581
138	0xbd05ab54	-0.032634094
139	0x3ce5965f	0.028025804
140	0x3d49a3df	0.049228545
141	0x3b6cc523	0.0036128245
142	0x39f56ffc	0.00046813476
143	0x3c8b74f0	0.017023534
144	0x3d0661cc	0.03280811
145	0xbb63499e	-0.003468133
146	0xbd4102d2	-0.04712183
147	0x3d39af4f	0.045333203
148	0x3ba3c6df	0.0049980725
149	0xbc3e89b0	-0.011629507
150	0x3d31f099	0.043442342
151	0xbd60e93c	-0.05490993
152	0xbc9e3ab1	-0.019315096
153	0x3cc98b1e	0.024602469
154	0x3bc57ae1	0.006026611
155	0xbcef79ae	-0.029232826
156	0xbd5dd952	-0.05416233
157	0xbd092dc2	-0.033490904
158	0x3c67006a	0.01409922
159	0x3d5cd0c8	0.053910047
160	0x3d472c37	0.04862615
161	0x3cbaa482	0.022783522
162	0xbcbdcf0e	-0.02317002
163	0x3d3403eb	0.04394905
164	0x388ce3fb	6.718185e-05
165	0x3c604d1a	0.013690257
166	0x3d7f15cb	0.062276643
167	0xbd7bcdc1	-0.06147552
168	0x3d245198	0.040116876
169	0xbaaf3b1f	-0.001336906
170	0x3d145868	0.036217123
171	0x3cacdba1	0.021100821
172	0x3d37582f	0.044761833
173	0xbc176699	-0.00924077
174	0x3ca3412a	0.019928534
175	0xbd3984a4	-0.04529251
176	0x3d81009a	0.06298943
177	0x3d2918a6	0.041283272
178	0xbaea2aa1	-0.0017865488
179	0x3c4c17c6	0.01245684
180	0x3baa8b1b	0.005204571
181	0xbc8f9030	-0.017524809
182	0x3c688d5c	0.014193859
183	0x3d85114b	0.06497439
184	0xbd1882ea	-0.037234224
185	0xbc9d7ab0	-0.019223541
186	0xbc8f64af	-0.017504064
187	0x3c25034f	0.01007159
188	0xbc9bab2e	-0.019002523
189	0x3d447da9	0.0479714
190	0xbca7c841	-0.02048123
191	0x3d48a270	0.048983037
192	0x3c2e84b0	0.010651752
193	0x3cbda42e	0.023149576
194	0x3d800274	0.06250468
195	0x3d544d67	0.05183163
196	0xbcd08c41	-0.025457503
197	0x3d28c0a8	0.041199356
198	0xbd238428	-0.039920956
199	0x3b4e9d8e	0.0031527015
200	0xbd052396	-0.03250464
201	0xbd653926	-0.055962704
202	0xbd17cbdb	-0.037059646
203	0x3d75419b	0.05987702
204	0x3caf2458	0.021379635
205	0x3d591658	0.052999824
206	0x3c977b25	0.018491337
207	0x3d8391d7	0.06424301
208	0xbd519f3f	-0.05117726
209	0x3d83b1f0	0.06430423
210	0x3d00204f	0.031280812
211	0xbc938c15	-0.018011132
212	0xbd45b9d6	-0.04827293
213	0xbc5bbfea	-0.013412455
214	0x3d18347c	0.037159428
215	0x3d0d8e39	0.034559462
216	0x3c6ecaa2	0.014574679
217	0xbd27a7d9	-0.040931556
218	0xbb47c369	-0.0030481464
219	0xbc8754f5	-0.016520003
220	0x3a407ce4	0.0007342829
221	0xbaef16a6	-0.0018241003
222	0xbc548a70	-0.012972459
223	0x3d491553	0.049092602
224	0xbd548867	-0.051887896
225	0x3cb5e195	0.022202292
226	0xbd3a29fa	-0.04545019
227	0xbd357967	-0.04430523
228	0xbd1522e7	-0.03641024
229	0xbd6240f1	-0.055237714
230	0xbcd082da	-0.02545302
231	0x3d2f5e45	0.04281451
232	0x3d3fc868	0.04682198
233	0xbcab0a06	-0.020878803
234	0x3cd23bcb	0.025663277
235	0xbba6f68b	-0.005095308
236	0x3c7d5fe7	0.015464759
237	0xbd5dabf5	-0.05411907
238	0x3d4c20d4	0.049835995
239	0xbcf92af9	-0.030415999
240	0xbb2932f0	-0.0025817715
241	0x3cdecb00	0.027196407
242	0x3d1648ec	0.036690637
243	0x3cfee059	0.031112837
244	0x3d6bc9fa	0.057565667
245	0x3c2c64bf	0.010522067
246	0xbc92b78f	-0.017909793
247	0xbb55803b	-0.0032577652
248	0xbd1eec59	-0.038799617
249	0x3d69aa75	0.057047326
250	0x3d06ea12	0.03293807
251	0x3d366cfb	0.044537526
252	0xbce33acf	-0.027738003
253	0xbd48e807	-0.049049404
254	0xbc94deaa	-0.01817258
255	0x3d3cd474	0.04610105

layers_amp.2.bias f4 [128]
0	0xbd3e808b	-0.046509307
1	0xbceac5ee	-0.028658833
2	0x3caa9f23	0.020827835
3	0x3ce6517b	0.028115025
4	0x3d0fce75	0.035109002
5	0xbd62f2fd	-0.055407513
6	0x3c9b4be2	0.018957082
7	0xbc92b06a	-0.017906386
8	0xbd09c512	-0.033635207
9	0x3d3b7f63	0.045775782
10	0xbcac6d8b	-0.021048328
11	0xbd1b0238	-0.037843913
12	0xbd4c683c	-0.049904093
13	0x3baf7cd6	0.005355458
14	0x3c6f738f	0.014614954
15	0x3cfe3133	0.03102932
16	0x3bdfa675	0.006825263
17	0xbd5f9c7c	-0.054592595
18	0x3b84b527	0.0040499154
19	0xbd2da715	-0.04239567
20	0x3a4ccace	0.00078122027
21	0x3d216486	0.039402507
22	0x3b51136b	0.0031902443
23	0x3c13bbfc	0.009016987
24	0xbd82967e	-0.0637636
25	0x3d8651f2	0.065585986
26	0x3d6b8d48	0.057507783
27	0xbd5130ca	-0.05107192
28	0xbc6f9747	-0.01462347
29	0x3cf18189	0.029480712
30	0x3ccb5d30	0.024824709
31	0xbd620d30	-0.055188358
32	0xbc93598e	-0.017987039
33	0xbc9ed146	-0.019386899
34	0xbd0b038a	-0.033938922
35	0xbd5f58ad	-0.054527927
36	0x3cc70d56	0.024298351
37	0x3bbe10e9	0.0058003557
38	0x3ce82fac	0.028343044
39	0xbc03e7b9	-0.008050852
40	0xbce0ee8a	-0.027457494
41	0x3d196bba	0.03745625
42	0x3c99e689	0.018786686
43	0xbcdc9384	-0.02692581
44	0xbd10540a	-0.035236396
45	0x3c5d3d29	0.013503351
46	0x3d4097cf	0.047019776
47	0xbd5373b4	-0.051624015
48	0xbd17b6f4	-0.037039712
49	0xbd5c1bd4	-0.053737476
50	0x3b8d80ee	0.004318348
51	0x3cb50c4c	0.02210059
52	0x3d39d709	0.04537109
53	0x3cfc800a	0.030822773
54	0x3d6942d3	0.056948494
55	0x3d3fd77b	0.046836358
56	0x3d66c976	0.056344472
57	0xbd2d15cd	-0.04225712
58	0xbd3668f3	-0.04453368
59	0x3c9edc37	0.019392116
60	0x3d551d02	0.052029617
61	0xbd4d6eed	-0.050154615
62	0x3ca686fa	0.020328034
63	0xbc560b65	-0.01306424
64	0xbbac5497	-0.0052591073
65	0xbaa5d5d4	-0.0012652227
66	0xbb929abe	-0.004474013
67	0xbcc4f7cf	-0.024043946
68	0xbc75b02e	-0.014995618
69	0x3d1c48ff	0.038155552
70	0xbd80ed40	-0.06295252
71	0x3d256c71	0.04038662
72	0x3cc5bd88	0.024138227
73	0x3cae27cb	0.02125921
74	0x3d7e7137	0.06211969
75	0x3c1db584	0.009625796
76	0xbbd152c9	-0.0063880426
77	0x3c240508	0.010010965
78	0x3d807ee3	0.06274202
79	0xbd46c37b	-0.04852627
80	0x3cf0c0db	0.029388836
81	0x3cf06d05	0.02934886
82	0xbc95a76f	-0.018268315
83	0x3d186693	0.037207197
84	0x3d018d81	0.03162909
85	0x3ccbe116	0.024887603
86	0xbcfece70	-0.031104296
87	0x3d6708c2	0.056404836
88	0x3b63e212	0.00347722
89	0xbd0f9984	-0.035058513
90	0x3d3b3773	0.045707177
91	0xbca7dd07	-0.020491136
92	0x3d0da6d4	0.034582928
93	0x3d3300f8	0.043702096
94	0xbcff7a04	-0.031186111
95	0xbc8e36d0	-0.017360121
96	0xbd36084c	-0.044441506
97	0xbbe86118	-0.0070916526
98	0xbbca8828	-0.006180782
99	0xbd6449a8	-0.055734307
100	0xbc968c54	-0.01837746
101	0x3d2ac8d1	0.04169542
102	0x3bf8aae4	0.007588731
103	0x3d71d471	0.05904049
104	0xbd11c490	-0.035587847
105	0x3d177a2a	0.03698174
106	0xbd648491	-0.055790488
107	0xbcb699c0	-0.02229011
108	0x3d0432c7	0.032274988
109	0x3d3c3ab3	0.045954417
110	0xbd0f1030	-0.034927547
111	0x3d28c904	0.04120733
112	0x3cbd42d7	0.02310316
113	0xbd1f32d6	-0.03886684
114	0x3d174aa1	0.036936406
115	0xbc7e4285	-0.015518789
116	0xbd425d0c	-0.047452018
117	0xbba6352c	-0.0050722566
118	0xbd19a065	-0.03750648
119	0x3d516c32	0.051128574
120	0xbcc60a82	-0.024174932
121	0xbd5250bb	-0.05134652
122	0xbb9c1055	-0.004762689
123	0xbc1d19fa	-0.009588713
124	0x3a9287f2	0.0011179431
125	0xbcec93b5	-0.028879026
126	0xbd3818ad	-0.044945408
127	0xbd2b35fe	-0.041799538

layers_amp.3.weight f4 [65, 128]
0	0x3d8d22f5	0.06891433
1	0xbccf8e1e	-0.025336321
2	0x3c3804e7	0.011231638
3	0xbcb38834	-0.021915533
4	0xbdb587b4	-0.08863774
5	0xbbc63d91	-0.0060498198
6	0xbc99bfdb	-0.018768242
7	0x3be64969	0.007027794
8	0x3c12b6c7	0.00895471
9	0xbbfcdf12	-0.0077170217
10	0xbda9e9b1	-0.08296526
11	0xbc364243	-0.011124196
12	0x3c777823	0.015104326
13	0x3d25742e	0.040394
14	0x3d01da31	0.031702224
15	0xbcd8218b	-0.026383182
16	0x3a8e1e2a	0.001084273
17	0x3d6fb920	0.05852616
18	0x3d9e4558	0.0772807
19	0x3d8eac82	0.06966497
20	0xbce4fa1b	-0.02795129
21	0xbbeacd04	-0.007165553
22	0x3caf8c4d	0.021429205
23	0x3ca9c316	0.020722907
24	0x3ce80abb	0.02832543
25	0x3d29c7da	0.04145036
26	0xbda7991b	-0.081834994
27	0x3d4b7162	0.049668677
28	0x3d1a9059	0.037735317
29	0xbda15ca5	-0.07878999
30	0xbccecc3a	-0.025243867
31	0x3d47cf7d	0.04878186
32	0x3d629471	0.055317346
33	0xbc6909f9	-0.014223569
34	0xbdae65b5	-0.08515493
35	0xbd981088	-0.07425028
36	0xbccac5f5	-0.024752596
37	0xbd88da38	-0.06682247
38	0x3ccb4824	0.024814673
39	0xbd4fc3d6	-0.050723873
40	0x3ce2959d	0.027659232
41	0xbcf7b71b	-0.030238679
42	0xbcd00352	-0.025392208
43	0x3d0cbe79	0.034361336
44	0xbd71afbe	-0.05900549
45	0xbdb9d37a	-0.09073539
46	0xbd7bd539	-0.06148264
47	0x3c0d275c	0.008615341
48	0xbd866565	-0.06562308
49	0xbca2be8a	-0.019866247
50	0x3d178f9c	0.03700219
51	0xbd7de041	-0.061981443
52	0xbd6fb4e7	-0.05852213
53	0xbd71a6a5	-0.058996815
54	0xbccdd348	-0.02512516
55	0x3d6eb2b8	0.05827591
56	0x3d64577d	0.055747498
57	0x3d30cfe7	0.04316702
58	0x3cd92ec3	0.026511556
59	0x3d7d83d9	0.061893318
60	0x3d888729	0.06666405
61	0x3c5f6cb5	0.013636758
62	0x3c36b1d3	0.011150795
63	0x3d8b7be2	0.06810738
64	0x3caa62ff	0.020799158
65	0xbdadf40c	-0.08493814
66	0x3bd319e7	0.006442297
67	0x3da51044	0.08059743
68	0x3d344094	0.0440069
69	0x3cade52b	0.02122744
70	0x3d7af1d6	0.06126579
71	0x3d5914c8	0.052998334
72	0x3d817eaf	0.06322991
73	0xbd710ff4	-0.058853105
74	0x3ca727ed	0.02040478
75	0x3b645f69	0.0034846908
76	0x3d7b4a0b	0.06134991
77	0x3be62505	0.007023456
78	0xbcc7e7d4	-0.024402536
79	0x3bd4059d	0.0064703957
80	0xbd8dd752	-0.06925835
81	0xbcf119a7	-0.029431177
82	0xbc1552e5	-0.009114002
83	0xbd5daaf8	-0.054118127
84	0xbd8c8bb1	-0.068625815
85	0x3d8e1506	0.06937604
86	0xbd2dcf22	-0.042433865
87	0xbbaffd11	-0.005370744
88	0xbd3d8b8f	-0.04627567
89	0x3d669741	0.05629659
90	0x3d1a4d4d	0.037671376
91	0xbcc5aad4	-0.024129309
92	0x3d03723e	0.03209137
93	0xbd9c66bb	-0.07636782
94	0x3d9f50a4	0.07779053
95	0x3d074cab	0.0330321
96	0x3d2e37ca	0.042533673
97	0xbd6062a3	-0.054781567
98	0xbd6b7b16	-0.05749043
99	0x3d1a2ae8	0.037638575
100	0x3d6edc94	0.05831583
101	0x3cc20012	0.023681674
102	0x3c995426	0.018716883
103	0x3d8f1ede	0.06988309
104	0xbd1d12fe	-0.03834819
105	0xbd665678	-0.056234807
106	0xbdb70116	-0.08935754
107	0xbc6ad2c6	-0.014332479
108	0xbc3ad638	-0.011403613
109	0xbd49e10c	-0.049286887
110	0x3d976402	0.07392122
111	0xbd4fae26	-0.05070319
112	0xbc7ac202	-0.015305044
113	0xbd524cd2	-0.051342793
114	0xbd8e5734	-0.069502264
115	0x3d84fd6b	0.06493648
116	0x3cb56746	0.022143971
117	0x3c74d677	0.0149437105
118	0x3d82c223	0.06384685
119	0x3d9c5d03	0.07634928
120	0xbca2cc99	-0.01987295
121	0x3cfc47ee	0.030796017
122	0xbb0eac69	-0.0021770245
123	0xbbee6b02	-0.00727594
124	0xbcf5673f	-0.029956458
125	0xbdb11b88	-0.08647829
126	0x3da404a9	0.08008701
127	0xbd9b190c	-0.07573137
128	0xbc239dfe	-0.009986399
129	0x3d870b92	0.06594004
130	0x3d0a3a0a	0.033746757
131	0x3d97889a	0.073991016
132	0x3d438562	0.047734626
133	0x3ce31308	0.027719036
134	0xbda514ca	-0.08060606
135	0x3d46e6fa	0.04856012
136	0x3cb51f25	0.022109577
137	0xbd695226	-0.05696311
138	0x3d7b0d09	0.06129173
139	0xbce60647	-0.028079165
140	0xbcb7534c	-0.022378586
141	0x3c8bdb81	0.017072441
142	0x3d077268	0.03306809
143	0xbd8b98b5	-0.06816236
144	0x3d489722	0.048972256
145	0xbda06849	-0.07832391
146	0x3cc8e9c5	0.024525532
147	0xbd59d55a	-0.053181984
148	0x3da7015f	0.081545584
149	0x3d9f3b62	0.07774998
150	0xbd4324bc	-0.047642455
151	0xbd4ba7d2	-0.049720593
152	0xbc65e7c1	-0.014032305
153	0x3db10d0e	0.08645068
154	0xbda71e95	-0.0816013
155	0x3d26b63b	0.040701132
156	0x3db44297	0.088017635
157	0x3b2634fe	0.0025361176
158	0x3da10da2	0.078639284
159	0x3bf70bef	0.0075392644
160	0xbd7b5bb9	-0.06136677
161	0xbd6e147a	-0.058124997
162	0x3daefc78	0.08544248
163	0xbd0107f2	-0.031501718
164	0xbcc12917	-0.023579163
165	0xbdacc617	-0.0843622
166	0xbd4fccaa	-0.050732292
167	0xbd92297f	-0.07136821
168	0xbd2575d7	-0.040395584
169	0x3971e108	0.00023067382
170	0x3d382bb9	0.044963572
171	0xbd993286	-0.0748034
172	0xbcd011e3	-0.025399154
173	0xbd84d6b1	-0.06486262
174	0x3ca01bb9	0.01954447
175	0xbd8e3ee6	-0.06945591
176	0x3d11c6e7	0.03559008
177	0x3da03b60	0.07823825
178	0x3d9826dc	0.07429287
179	0xbd809d8a	-0.06280048
180	0x3d274ae5	0.04084291
181	0xbda0a1b0	-0.078433394
182	0xbcd6f461	-0.026239576
183	0x3db3883b	0.08766218
184	0xbc8fbc11	-0.017545732
185	0xbd296154	-0.041352585
186	0xbd4dd31a	-0.05025015
187	0x3d2ba141	0.04190183
188	0x3d996163	0.07489278
189	0x3d5d0e7c	0.05396889
190	0x3d78089b	0.06055508
191	0x3d858e70	0.065213084
192	0x3ce26783	0.027637249
193	0x3d0faabe	0.03507494
194	0x3c0d0159	0.008606278
195	0x3cff95ca	0.031199355
196	0xbd471573	-0.04860444
197	0xbd34f29f	-0.044176694
198	0x3cbbdb31	0.022931667
199	0xbd2fbaa9	-0.042902622
200	0x3d52badc	0.051447734
201	0xbc43b205	-0.011944299
202	0x3d477051	0.048691098
203	0xbd05f9b3	-0.032708835
204	0x3d48e81c	0.04904948
205	0x3cf6de93	0.030135429
206	0x3c9f6b24	0.019460268
207	0x3d826063	0.063660406
208	0xbd5d9905	-0.05410101
209	0xbd7c3e65	-0.06158294
210	0x3d851f2f	0.065000884
211	0xbd85aab3	-0.06526699
212	0xba091041	-0.0005228557
213	0xbcbbc8e2	-0.022922937
214	0xbd610c8f	-0.054943617
215	0xbda44a86	-0.08022027
216	0xbd7556db	-0.059897285
217	0x3d4147d1	0.04718763
218	0xbd231add	-0.03982054
219	0xbd961681	-0.07328511
220	0x3c9466d4	0.018115439
221	0xbd8a8ffa	-0.067657426
222	0x3d8d1b47	0.06889968
223	0x3d203864	0.03911628
224	0xbd1753dd	-0.036945213
225	0x3d10d984	0.03536369
226	0xbc53dd54	-0.012931187
227	0xbc610124	-0.013733182
228	0xbd8948c9	-0.06703336
229	0xbd8461e1	-0.064639814
230	0x3d19cd6e	0.03754943
231	0x3cffac97	0.031210227
232	0x3d22b76c	0.039725706
233	0xbccd3b58	-0.025052711
234	0x3cc0446a	0.023470122
235	0x3d464d26	0.04841342
236	0x3cb06b14	0.021535434
237	0x3d8bb169	0.06820948
238	0xbbfa8bdc	-0.007646067
239	0x3d365b2f	0.044520553
240	0x3cecbb15	0.028897801
241	0x3d6c8ffb	0.057754498
242	0x3d3e427d	0.046450127
243	0x3cf4edc8	0.02989854
244	0x3bb787f6	0.0056009246
245	0x3c8eb568	0.017420486
246	0x3da28a10	0.079364896
247	0xbc97f5c5	-0.01854981
248	0x3cd0d1d2	0.025490675
249	0xbda91082	-0.08255102
250	0xbd83e256	-0.064396545
251	0xbb00472b	-0.001957367
252	0xbd04a325	-0.03238215
253	0x3bdef4af	0.006804071
254	0x3cec46fe	0.028842445
255	0xbc96d9d5	-0.018414417

layers_amp.3.bias f4 [65]
0	0x3ce81c4e	0.02833381
1	0x3da2f8dd	0.07957623
2	0xbd971843	-0.073776744
3	0x3d0a0cb0	0.033703506
4	0x3d2d169e	0.042257898
5	0x3d9826d9	0.074292846
6	0x3d85c0f2	0.06530942
7	0xbca0b14b	-0.01961579
8	0xbd30b819	-0.04314432
9	0x3d28d19f	0.041215535
10	0xbc090078	-0.008361928
11	0x3d843b56	0.0645663
12	0x3d0cb524	0.034352437
13	0xbd96a3e6	-0.0735548
14	0x3ce47d59	0.027891802
15	0x3d07dfbd	0.033172358
16	0x3c987066	0.018608283
17	0x3c588c32	0.013217019
18	0x3d8e23f5	0.06940452
19	0xbd12ab0f	-0.035807665
20	0xbd20d37d	-0.03926419
21	0x3ca8052f	0.020510284
22	0xbbb1ddd1	-0.005428054
23	0xbd965bd9	-0.07341737
24	0x3d3d43bb	0.04620717
25	0xbd83f655	-0.064434685
26	0xbd444a29	-0.047922287
27	0x3a765159	0.0009396277
28	0x3d81ba50	0.063343644
29	0x3d973cdb	0.07384654
30	0x3d95db38	0.07317203
31	0x3574f9a1	9.126034e-07
32	0xbdb1f06b	-0.08688434
33	0x3d007335	0.03135987
34	0xbd3159ba	-0.04329846
35	0x3d96633d	0.07343147
36	0xbcc7338d	-0.024316574
37	0x3cb122c5	0.021623025
38	0x3db104e8	0.08643514
39	0xbbc86863	-0.0061159595
40	0x3d8cbc30	0.068718314
41	0xbad7f813	-0.001647713
42	0x3d94dc83	0.07268622
43	0x3d261dd5	0.040555794
44	0x3d1a5068	0.037674338
45	0x3d8b7821	0.06810022
46	0x3d82d215	0.06387726
47	0x3cc3d153	0.023903525
48	0x3d7879ff	0.06066322
49	0xbd7e1a01	-0.062036518
50	0xbd75aae0	-0.059977412
51	0xbd5f396a	-0.054498114
52	0x3cf11b6e	0.029432025
53	0x3d9d322f	0.076755874
54	0x3d83e156	0.06439464
55	0xbd4e462d	-0.050359894
56	0xbc8b9f92	-0.017043862
57	0xbce1e013	-0.027572667
58	0xbd40d168	-0.047074705
59	0x3d7b8db4	0.061414436
60	0xbd817a5f	-0.063221686
61	0x3c85b787	0.016322864
62	0xbc9c738f	-0.019098071
63	0xbdae7ffb	-0.08520504
64	0xbd9c7c4e	-0.07640897

layers_phi.0.weight f4 [128, 64]
0	0xbd1f164c	-0.038839623
1	0x3d001d66	0.031278037
2	0x3cc1d2da	0.023660112
3	0x3dc95d3a	0.09832235
4	0xbcbb774e	-0.022884037
5	0xbd988059	-0.074463554
6	0xbca17f51	-0.01971403
7	0x3dab6d3f	0.083704464
8	0x3dfca093	0.123353146
9	0xbcf63722	-0.030055586
10	0x3d9a6bc6	0.075400874
11	0x3dbe5f31	0.092955
12	0xbd96dde9	-0.07366545
13	0x3dde627b	0.108586274
14	0x3bee7bf8	0.007277962
15	0x3d4d6789	0.050147567
16	0xbd5de617	-0.05417451
17	0xbc302b61	-0.01075253
18	0x3c5c0306	0.013428455
19	0xbc44ba30	-0.012007281
20	0xbd73243f	-0.05936074
21	0x3aaf70a3	0.0013385009
22	0x3d402acb	0.04691581
23	0x3d827773	0.063704394
24	0xbda29b28	-0.0793975
25	0x3d8bed9e	0.06832431
26	0x3dcac202	0.09900285
27	0xbd859f4b	-0.06524523
28	0xbddabcee	-0.10680567
29	0x3b39a28f	0.0028325652
30	0x3a9f92ba	0.0012174465
31	0xbcbf0c11	-0.023321183
32	0x3dda7357	0.106665306
33	0x3de78c58	0.11306065
34	0x3d02a03e	0.0318911
35	0xbdb538a4	-0.08848694
36	0xbc25ddb6	-0.010123661
37	0x3daf683f	0.08564805
38	0xbdec1937	-0.11528247
39	0xbda69b3d	-0.08135078
40	0x3a819b3f	0.0009888186
41	0x3dbe7ce5	0.093011655
42	0xbdd86a13	-0.10567107
43	0x3dd341c4	0.10315278
44	0xbcb4a38e	-0.022050645
45	0xbd923c83	-0.07140448
46	0x3ca69cb8	0.020338401
47	0x3d2ae447	0.04172161
48	0x3d0bd044	0.034134164
49	0xbd40d375	-0.04707666
50	0x3ad93653	0.0016571976
51	0xbd41564a	-0.047201432
52	0xbd8017bd	-0.06254528
53	0xbdbe23e2	-0.09284188
54	0xbd426503	-0.047459614
55	0xbda740b6	-0.081666395
56	0xbdc7ac4f	-0.09749662
57	0xbc722030	-0.014778182
58	0xbd93f271	-0.072239764
59	0xbdb0ee01	-0.08639146
60	0xbd9e00e5	-0.07715014
61	0xbdf975ff	-0.12180709
62	0xbd98dffd	-0.074645974
63	0x3c19c701	0.009385825
64	0xbd904cf5	-0.070459284
65	0xbc832730	-0.016009897
66	0x3c5fd681	0.013661982
67	0x3c9d5350	0.019204766
68	0xbc15e2a0	-0.00914827
69	0xbd07135e	-0.032977454
70	0x3d8c0042	0.06835987
71	0x3d66d581	0.056355957
72	0x3d9fc011	0.07800306
73	0xbc69c15f	-0.014267295
74	0x3dd45bf2	0.103691
75	0xbe0087b2	-0.12551764
76	0x3dbc3be2	0.09191109
77	0x3a62bb7b	0.00086491526
78	0x3d1f3835	0.038871963
79	0x3d702dc4	0.058637396
80	0x3da6158f	0.08109581
81	0x3c9368af	0.017994253
82	0x3d9df4a2	0.07712676
83	0x3ca1d31a	0.019753981
84	0xbd536220	-0.05160725
85	0x3dd208e0	0.10255599
86	0xbd89bbee	-0.06725298
87	0x3dc1b702	0.09458734
88	0x3ddf1fa4	0.10894707
89	0xbd33a030	-0.04385394
90	0xbcf86393	-0.030320918
91	0xbcfee0ce	-0.031113055
92	0x3dc19dbd	0.09453914
93	0x3d3cdc0b	0.046108287
94	0x3dc7e57e	0.09760569
95	0xbdc536f0	-0.09629619
96	0xbc916eae	-0.017752972
97	0xbd9eefa5	-0.07760552
98	0x3da65c23	0.081230424
99	0xbce84b71	-0.028356286
100	0xbc7f0e90	-0.015567437
101	0xbdee140b	-0.11624917
102	0x3de42fb5	0.11141912
103	0x3da61592	0.08109583
104	0x3dd4c648	0.10389382
105	0x3d7cfadf	0.061762687
106	0xbdd598be	-0.10429524
107	0xbccffba3	-0.025388544
108	0x3d6f8231	0.05847377
109	0xbd99a680	-0.075024605
110	0xbd85b633	-0.06528892
111	0xbd26c989	-0.040719543
112	0xbd05dbab	-0.032680195
113	0x3dab7e69	0.0837372
114	0xbd88450e	-0.06653796
115	0xbd6b2936	-0.05741235
116	0x3bb3aa2f	0.005482934
117	0xbde0532a	-0.10953362
118	0xbd3e069c	-0.046393022
119	0xbb63a622	-0.0034736474
120	0xbdb50f1d	-0.08840773
121	0xbced01eb	-0.028931579
122	0x3ddbcc0c	0.10732278
123	0xbcbd2267	-0.023087693
124	0xbda39e17	-0.079891376
125	0x3c1bf8d3	0.009519774
126	0x3d479b74	0.048732236
127	0x39ef5d69	0.00045655228
128	0x3d556b9a	0.05210457
129	0xbcd56cd4	-0.02605287
130	0x3cdc82d2	0.026917849
131	0xbddcfcf7	-0.10790437
132	0xbdd31cea	-0.10308249
133	0xbd246ef1	-0.040144864
134	0xbcc5e2b1	-0.024155946
135	0x3ceac5e9	0.028658824
136	0x3d191224	0.037370816
137	0x3c0a64f1	0.008446918
138	0x3ce69b7b	0.02815031
139	0x3d8e44e3	0.06946733
140	0xbd9f818a	-0.077883795
141	0xbb331c0e	-0.0027329954
142	0xbe00bcaf	-0.12571977
143	0x3dc1eb94	0.09468761
144	0x3d77fe1b	0.06054507
145	0x3cf94db2	0.030432556
146	0x3dd71da6	0.10503702
147	0x3d5dd9b5	0.0541627
148	0xbdcb95fc	-0.099407166
149	0xbcdf1512	-0.027231727
150	0x3db15b21	0.086599596
151	0xbd6d182b	-0.057884376
152	0x3dffc0a0	0.12487912
153	0xbda729dc	-0.08162281
154	0xbd063b8d	-0.032771636
155	0x3d8ade99	0.067807384
156	0x3c31509a	0.01082244
157	0xbdd00ba8	-0.10158473
158	0x3de9713d	0.113985516
159	0xbbb9b80b	-0.0056676916
160	0x3b238335	0.0024950032
161	0x3daa222b	0.08307298
162	0x3cc35fc5	0.023849377
163	0xbd991769	-0.07475168
164	0x3c1e15e5	0.009648775
165	0xbdafa64a	-0.08576639
166	0xbe03e734	-0.12881166
167	0xbe075493	-0.13215856
168	0x3dd306d5	0.103040375
169	0x3db9f3af	0.09079682
170	0x3c9db765	0.019252488
171	0xbdc0b8a3	-0.09410217
172	0xbdcdf8f8	-0.10057253
173	0xbddc968d	-0.10770903
174	0xbdf0c841	-0.117569454
175	0xbde18f87	-0.11013704
176	0xbd176742	-0.03696371
177	0xbcb48386	-0.022035372
178	0x3dadb987	0.08482652
179	0xbdc47afe	-0.095937714
180	0x3d986217	0.07440584
181	0xbd89beb2	-0.06725825
182	0x3d574479	0.052555535
183	0xbd9b3029	-0.07577545
184	0xbdd57794	-0.10423198
185	0x3dc69e40	0.096981525
186	0xbced8075	-0.028991917
187	0xbd2852b9	-0.041094515
188	0xbd267074	-0.040634587
189	0xbce9bfdb	-0.028533867
190	0x3dc2077b	0.09474083
191	0x3d3fe8bf	0.046852823
192	0xbdef3821	-0.116806276
193	0x3da198db	0.07890483
194	0xbbb6c8e4	-0.0055781472
195	0xbd672ce5	-0.0564393
196	0x3d4e95f4	0.050435975
197	0x3aaef012	0.0013346693
198	0xbdc3abf7	-0.09554284
199	0xbd1633d8	-0.036670536
200	0xbd9e76f0	-0.07737529
201	0xbd8add91	-0.06780542
202	0x3d7c0b7b	0.061534386
203	0xbb94f626	-0.0045459447
204	0x3d8d3d68	0.06896478
205	0x3dbb0aaf	0.09132897
206	0xbdf31813	-0.11869826
207	0xbac70e0d	-0.0015186683
208	0xbc844ad4	-0.016148962
209	0x3d83eef1	0.06442059
210	0x3db96fbd	0.090545155
211	0x3dc08d87	0.09401994
212	0xbd2ca05a	-0.04214511
213	0x3e0476b3	0.12935905
214	0x3ca22c63	0.019796556
215	0x3dd5b735	0.104353346
216	0xba8907e0	-0.0010454617
217	0x3de79daf	0.11309373
218	0x3dcda6a7	0.10041552
219	0x3d8112bd	0.06302402
220	0xbd171eb6	-0.036894523
221	0xbd8485cb	-0.064708315
222	0xbcfa6155	-0.03056399
223	0xbdebe17e	-0.115176186
224	0x3df25225	0.11832074
225	0xbd922d77	-0.07137578
226	0x3d002139	0.031281684
227	0x3d016032	0.03158588
228	0xbd092788	-0.033484966
229	0x3d5f23f5	0.05447765
230	0xbd557f3a	-0.052123286
231	0x3d96fc7b	0.073723756
232	0xbd468e57	-0.04847559
233	0xbda5e5c8	-0.08100468
234	0xbd994b7c	-0.074851006
235	0x3d499b4d	0.049220372
236	0xbc5246d5	-0.0128342705
237	0x38b30830	8.53691e-05
238	0xbd93d459	-0.072182365
239	0xbd4f0e80	-0.050550938
240	0x3c55a745	0.013040368
241	0xbcbe7121	-0.023247303
242	0x3d4b0e94	0.04957445
243	0x3d0010dc	0.03126608
244	0xbe027ea4	-0.12743622
245	0x3bf6f3cb	0.0075363866
246	0x3df2f591	0.11863244
247	0x3e0058dd	0.12533899
248	0x3d7ca2a3	0.06167854
249	0xbdca29f6	-0.09871285
250	0xbd1a10c2	-0.037613638
251	0xbb25e0d3	-0.0025311008
252	0xbdf40dd8	-0.11916703
253	0x3d9cb8ec	0.076524585
254	0xbd540492	-0.05176217
255	0x3bc5e24a	0.0060389386
