model.ckpt (torch_old, 20912 bytes, 5 tensors)

convolutions.0.weight f4 [8, 4, 7, 7]
0	0xbb65ac0f	-0.0035045182
1	0xbb4d9ada	-0.0031372816
2	0xbd1c198d	-0.038110305
3	0xbb564526	-0.0032695024
4	0x3af88ee5	0.0018963484
5	0xbd50e735	-0.051001746
6	0x3b8e5871	0.004344039
7	0xbaa7759a	-0.0012776137
8	0x3d4e4d03	0.050366413
9	0xbc5f5429	-0.013630905
10	0xbd3d3907	-0.046196964
11	0x3d432ded	0.04765122
12	0x3c590853	0.013246614
13	0xbcf3a5d0	-0.029742151
14	0x3d2c0d4f	0.04200488
15	0xbb01f93a	-0.0019832388
16	0x3cb90311	0.02258447
17	0x3d530899	0.05152187
18	0x3d4b434d	0.04962473
19	0xbd17e5f3	-0.03708453
20	0x3ca23a1d	0.019803101
21	0xbc82219c	-0.015885167
22	0xb966a340	-0.00021995325
23	0xbac7f238	-0.0015254682
24	0x3adbca95	0.0016768748
25	0x3d11e2ee	0.035616808
26	0x3afff488	0.0019527832
27	0x3c2d4189	0.010574707
28	0xbc46d950	-0.012136772
29	0xbd02c6eb	-0.031927984
30	0xbb091ea0	-0.0020922795
31	0xbb931b15	-0.0044893124
32	0xbd205cf1	-0.039151136
33	0xbd091e6e	-0.033476286
34	0xbc9c7842	-0.019100312
35	0x3d137d07	0.036007907
36	0xbd20539a	-0.03914223
37	0xbd445af6	-0.04793831
38	0x3d54259e	0.051793687
39	0x3b208d12	0.0024498147
40	0x3b709777	0.0036711374
41	0xbc75e4fe	-0.015008209
42	0x3bb433e1	0.0054993485
43	0xbca6db9f	-0.020368395
44	0x3cf08901	0.029362204
45	0x3d4f205b	0.050567966
46	0xba86d270	-0.0010286104
47	0xbca0dbb1	-0.019636007
48	0x3d59c673	0.05316777
49	0xbae3ee79	-0.0017389796
50	0x3b229328	0.002480695
51	0x3c0da008	0.008644111
52	0xbd29ecc7	-0.041485574
53	0xbb73f1c3	-0.0037222959
54	0xbaed4db8	-0.0018104827
55	0xbac5c9dc	-0.0015090066
56	0xbd25b29b	-0.040453535
57	0xbcef753b	-0.029230705
58	0xbc80127f	-0.01563382
59	0xbafa4a42	-0.0019095617
60	0x3d39caae	0.045359306
61	0xbd24d03f	-0.04023766
62	0xbd4c1367	-0.04982319
63	0x3cf7bc7c	0.030241244
64	0x3a6b0ceb	0.00089664635
65	0xbb2423c4	-0.0025045732
66	0x3d419442	0.04726053
67	0x3a082d16	0.00051947066
68	0x3b9ff9b2	0.004882061
69	0x3aa8b562	0.0012871439
70	0xbcc8192f	-0.024426071
71	0xbc85a2f9	-0.016313063
72	0xbd1a2fe7	-0.03764334
73	0xbd0fd4ab	-0.035114925
74	0x3c8ca1fc	0.017167084
75	0x3d0c18df	0.034203406
76	0xbd0b3803	-0.033988964
77	0x3d11ce92	0.03559739
78	0xba90198f	-0.0010993945
79	0xbd2eca89	-0.04267362
80	0xbb09e1f8	-0.002103923
81	0x3bc0e6b0	0.005886875
82	0xbad3e49d	-0.0016166155
83	0xbd395cdb	-0.04525457
84	0x3c4cf915	0.012510558
85	0xbd3d1601	-0.046163563
86	0xba37bcf6	-0.00070090534
87	0x3aa51200	0.0012593865
88	0xbd103968	-0.035210997
89	0xbc61f16e	-0.0137904715
90	0xbb6ec0ff	-0.0036430953
91	0xbd013025	-0.031540055
92	0xbb869716	-0.0041073663
93	0xbd121b6d	-0.035670687
94	0x3cea50d0	0.028602988
95	0x3d3c5e21	0.045988206
96	0xbccc53b8	-0.024942264
97	0x3c3a1dab	0.011359612
98	0xbd344dcc	-0.044019505
99	0xbc8dcdf0	-0.017310113
100	0x3beaf131	0.0071698655
101	0x3c2bc83a	0.010484749
102	0xbb282040	-0.0025653988
103	0xbd25f43e	-0.04051613
104	0xbcc66250	-0.0242168
105	0xba19ba10	-0.0005864212
106	0xbd250bda	-0.040294506
107	0x3a90937e	0.0011030284
108	0x3d0d41a4	0.034486428
109	0x3cffa119	0.031204747
110	0x3a1a3675	0.00058827485
111	0x3c89ab03	0.016805178
112	0x3d44cc30	0.04804629
113	0x3ba6dee9	0.005092491
114	0x3cd886e1	0.026431503
115	0xbc7c416c	-0.015396457
116	0x3cfd6110	0.030930072
117	0xbcfaae3c	-0.03060066
118	0x3d4e8194	0.050416544
119	0x3d45de0c	0.048307464
120	0xbce00c79	-0.027349697
121	0x3c424b97	0.011858842
122	0x3b302360	0.0026876554
123	0x3cdd13d4	0.026986994
124	0x3a0d42f2	0.0005388699
125	0xbacbd904	-0.0015552347
126	0xbd48d237	-0.0490286
127	0xba84c4d4	-0.001012946
128	0x3cb3a51a	0.021929312
129	0x3b93ac3e	0.004506617
130	0xbcdba789	-0.026813285
131	0x3d06bda7	0.03289571
132	0xbb232438	-0.0024893414
133	0x3d52e517	0.05148801
134	0xbbe2efa2	-0.006925539
135	0x3ae1987e	0.0017211584
136	0xbcd0e1d7	-0.025498314
137	0xbca34420	-0.019929945
138	0x3d26b940	0.040704012
139	0x3d1fe0f8	0.039032906
140	0xbd399377	-0.04530665
141	0x3c858c30	0.016302198
142	0xbcb178dd	-0.021664077
143	0x3a482666	0.00076351163
144	0xbd1d98e6	-0.038475893
145	0xbbcf69ce	-0.0063297516
146	0x3d4bd1b5	0.04976054
147	0xbd03bbea	-0.03216163
148	0xbce004f8	-0.02734612
149	0x3d41a159	0.047273014
150	0x3cf33fac	0.029693447
151	0x3c9efdd5	0.019408146
152	0x3b7486af	0.0037311723
153	0xb98bc995	-0.00026662336
154	0x398d675d	0.00026970627
155	0xbd17dc0b	-0.037075084
156	0x3d2ab50e	0.041676573
157	0x3cb46cc4	0.02202452
158	0x3c95372b	0.018214783
159	0x386e3560	5.679333e-05
160	0xbb7b2844	-0.003832356
161	0xbd5708c0	-0.05249858
162	0xbd2f0808	-0.04273227
163	0x3cae6fef	0.021293608
164	0x3b01d1a2	0.0019808789
165	0x3ae7fd0e	0.0017699318
166	0xbac39482	-0.0014921578
167	0xb91deb75	-0.00015060401
168	0xbc05c2d0	-0.008164123
169	0x3c7fbf91	0.015609638
170	0x3cd6cc09	0.026220338
171	0x3c9c68b3	0.019092893
172	0xbd07ef9c	-0.033187494
173	0x39bfd829	0.0003659141
174	0x3c96fc4e	0.018430855
175	0x3d1804ed	0.037114073
176	0x3cde7c1b	0.027158787
177	0xbd23cf89	-0.039992843
178	0x3cc02301	0.023454191
179	0xbd4ae801	-0.049537662
180	0x39c18b93	0.0003691582
181	0xbc34c11d	-0.01103237
182	0xbd030022	-0.03198255
183	0xbd1e8c6b	-0.03870813
184	0x3cbed0a0	0.02329284
185	0xbcac0700	-0.020999432
186	0x3d4a1004	0.04933168
187	0xbab80b28	-0.0014041411
188	0xbbf21aa8	-0.0073884316
189	0xbcad343a	-0.021143068
190	0x3cbe4d3f	0.023230193
191	0x3d0af83c	0.03392814
192	0x3b843c53	0.0040355115
193	0x3c8c9c7a	0.017164458
194	0x3a5c25b8	0.00083979545
195	0xbcf44fac	-0.029823147
196	0xba16f034	-0.0005757839
197	0xbd51d1f0	-0.051225603
198	0x3d4d7012	0.050155707
199	0xba34fb1a	-0.0006903872
200	0x3ce51376	0.027963381
201	0xbd3f1084	-0.04664661
202	0x3ce1ba86	0.027554762
203	0xbd4e267e	-0.050329678
204	0xbcae470d	-0.021274114
205	0xb94319ac	-0.00018606213
206	0x3c3ad498	0.011403225
207	0xbc72fac3	-0.014830294
208	0x3cc54960	0.02408284
209	0x3d123448	0.03569439
210	0x3d5a466a	0.05328981
211	0x3973e0ea	0.00023258073
212	0x3b8b5b17	0.004252802
213	0xbd3e77e1	-0.046501044
214	0xbd0182e2	-0.03161896
215	0x3b47fcde	0.003051571
216	0xbc28c64d	-0.010301185
217	0xbc60f5ea	-0.0137305055
218	0x3d52dc0a	0.051479377
219	0xbc184898	-0.009294651
220	0xbd16819e	-0.036744706
221	0x3d128c86	0.035778545
222	0xbb0d4436	-0.002155555
223	0xbb21a59e	-0.0024665366
224	0xbd28e9f5	-0.041238744
225	0xb996807e	-0.00028705964
226	0xbc8773f8	-0.01653479
227	0x3cbda9d4	0.02315227
228	0xbbb8831b	-0.0056308634
229	0xbccfa657	-0.025347872
230	0xbca0a3d7	-0.019609375
231	0x3a095d84	0.000524007
232	0xbd4b6c6d	-0.04966395
233	0x3cc6329a	0.02419405
234	0xbcbed1d2	-0.02329341
235	0xbb8b3ad8	-0.004248958
236	0x3d4a51fd	0.049394596
237	0x3d0d8b20	0.034556508
238	0xbb33ea71	-0.002745297
239	0xb9fd0264	-0.00048257702
240	0x3b44518d	0.0029955835
241	0xbb784aec	-0.0037886454
242	0xbbc6819c	-0.006057931
243	0x3d1a70af	0.03770512
244	0xbcb2e025	-0.021835396
245	0x3ce7a32e	0.028276052
246	0xbc243cb2	-0.0100242365
247	0xbc8df2b4	-0.017327644
248	0xbb9fdaff	-0.0048784013
249	0xbb026670	-0.0019897483
250	0x3b1d4522	0.0023997505
251	0xbd27bec3	-0.04095341
252	0x3cf8b529	0.030359821
253	0x3a6ba6eb	0.0008989411
254	0xb8600ae4	-5.3415904e-05
255	0xbcd3d6f2	-0.02585933

convolutions.0.bias f4 [8]
0	0x39dd9658	0.0004226442
1	0xbd57c3f8	-0.052677125
2	0x3d33968c	0.043844745
3	0xbcd135a1	-0.025538268
4	0xbc8e0eb4	-0.017340995
5	0xbb2f5f18	-0.002675956
6	0xbcd7cce7	-0.026342822
7	0xbb421f3d	-0.002962067

convolutions.1.weight f4 [16, 8, 5, 5]
0	0x3c3b0cbc	0.01141661
1	0xbbe74981	-0.007058323
2	0x3d0e4596	0.03473433
3	0xbb3989bc	-0.0028310856
4	0xbd280184	-0.04101707
5	0x3a1e04b4	0.00060279225
6	0xbc905262	-0.017617408
7	0xbc470ba9	-0.012148776
8	0x3ce62c90	0.02809742
9	0xbcfd7a32	-0.030942056
10	0xbd2639d1	-0.04058248
11	0x3d5674f3	0.052357625
12	0x3a373d38	0.00069900183
13	0xbd294155	-0.04132207
14	0xb965bd94	-0.00021909765
15	0x3b198c4f	0.0023429578
16	0xbd051bdb	-0.03249727
17	0xbd55aecb	-0.05216865
18	0xbd29b5e8	-0.041433245
19	0xbb90c065	-0.0044174665
20	0xbb450c6b	-0.0030067216
21	0xbd031286	-0.032000087
22	0xbd32af30	-0.043624103
23	0x3bd171f4	0.006391758
24	0xbb392701	-0.0028252008
25	0xba19f9ee	-0.0005873729
26	0x3cb28234	0.021790601
27	0x3d4ba935	0.049721915
28	0xba26bf79	-0.0006360929
29	0x3c10d80f	0.008840575
30	0xbbbaab2a	-0.005696674
31	0xbd58e7b6	-0.05295535
32	0xbca1ec19	-0.0197659
33	0xbb290927	-0.0025792809
34	0xbc8a11af	-0.016854135
35	0xbd3632ee	-0.044482164
36	0xbbda5e91	-0.006664105
37	0x3bcead27	0.0063072625
38	0xbd299e0d	-0.041410495
39	0xbd38adfb	-0.045087796
40	0xbbf0e41d	-0.007351412
41	0xbd14f0fd	-0.036362637
42	0x3d0c6d04	0.034283653
43	0x3b310172	0.0027008918
44	0x3ae6988a	0.0017593068
45	0xbcd23f71	-0.025665017
46	0xbc03e8aa	-0.008051077
47	0xbc6a81e9	-0.0143132
48	0x3abbd992	0.0014331809
49	0xbb195763	-0.0023398034
50	0x3ca29e0e	0.019850757
51	0x3ce8a3c0	0.028398395
52	0xba8df3b4	-0.0010830075
53	0x3c7633dd	0.015027014
54	0x3beb847f	0.0071874256
55	0xbb0e01f0	-0.0021668635
56	0xbcf834c0	-0.03029859
57	0xbd02a754	-0.031897858
58	0xbd124fd6	-0.03572067
59	0x3cc902ae	0.02453741
60	0x3cfeefa2	0.031120125
61	0xbd4a7ff4	-0.04943843
62	0x3a6e0139	0.00090791617
63	0x3cbddda4	0.023176976
64	0xbd35bbb1	-0.04436845
65	0x39d008ee	0.00039679505
66	0xbd374e32	-0.044752307
67	0x3cd97435	0.02654467
68	0xbd3452f3	-0.04402442
69	0xbc8a0001	-0.016845705
70	0xbd19185f	-0.037376758
71	0xbb2f2363	-0.0026723973
72	0x3a91b584	0.0011116718
73	0xbd389218	-0.0450612
74	0xbb95b7b1	-0.004569017
75	0xbaf9c0c0	-0.0019054636
76	0x3c926294	0.017869271
77	0x38ee1430	0.000113524846
78	0xbb155de7	-0.0022791566
79	0xbd257184	-0.04039146
80	0x3b2b3562	0.0026124348
81	0xbcfa49aa	-0.030552704
82	0x3d44a23b	0.048006278
83	0xbd2142ab	-0.03937022
84	0x3b8378e2	0.004012213
85	0x3caac192	0.020844255
86	0x3c5ac569	0.01335273
87	0xbd08c8aa	-0.033394493
88	0xbd129f96	-0.035796724
89	0xbb9e53ad	-0.0048317523
90	0x3cb8d8e0	0.022564352
91	0xbbd0a0ca	-0.006366824
92	0xbbe1b19a	-0.006887627
93	0x3c8fabf4	0.017538048
94	0x3a2a3c96	0.00064940134
95	0xbc537e76	-0.012908569
96	0xbc27b3a4	-0.010235701
97	0xbd4d8e47	-0.050184514
98	0x3c0e8f5d	0.008701173
99	0x3d0fdcf1	0.035122816
100	0xba682798	-0.00088559976
101	0xbb2245f9	-0.0024760945
102	0xbb2abcab	-0.0026052396
103	0x3d1770b1	0.036972705
104	0x3a73ee3b	0.00093052135
105	0x3ac25df6	0.0014829028
106	0xbd34044d	-0.043949414
107	0xbcf8e51f	-0.030382691
108	0x3d3d50a8	0.046219498
109	0x3cede022	0.029037539
110	0x3a84cfff	0.0010132788
111	0xbcd8edfc	-0.026480667
112	0xbd0f4abc	-0.03498338
113	0xbb89b755	-0.004202763
114	0x3b127d50	0.0022352524
115	0xba92a3bc	-0.0011187713
116	0x3d1929e7	0.037393477
117	0xbd48716b	-0.04893629
118	0xbc589554	-0.013219196
119	0x3cfcb4db	0.030847957
120	0xbcf1c397	-0.02951221
121	0x3d48a887	0.048988845
122	0xbc6fd26d	-0.014637572
123	0x3bdcef9e	0.006742432
124	0x3ceb6c08	0.028738037
125	0x3d09c645	0.03363635
126	0x3b3f7e22	0.0029219468
127	0x3b325496	0.0027211062
128	0xbd03ada3	-0.032148015
129	0xbd155497	-0.036457624
130	0x3c80c2f8	0.015717968
131	0x3b9e9864	0.0048399437
132	0x3d244c25	0.04011168
133	0xbc1ef066	-0.00970087
134	0xbd2562ca	-0.040377416
135	0xbc876fff	-0.016532896
136	0x3b80afe7	0.003927219
137	0xbc901962	-0.017590228
138	0xbc3c951f	-0.011510163
139	0x3aa41c09	0.0012520562
140	0x3c9c1e00	0.019057274
141	0xb92f9ef7	-0.0001674852
142	0xbaf692f6	-0.0018812108
143	0xba606b00	-0.0008560866
144	0x3b28ccdd	0.0025756874
145	0xbc33851a	-0.010957027
146	0x3bd5b1e2	0.0065214494
147	0x3c130331	0.008972929
148	0xbb04c7dd	-0.002026073
149	0xbc957011	-0.018241914
150	0x3c7ff46d	0.0156222405
151	0xbc95a1dc	-0.018265657
152	0x3b88bc21	0.0041728173
153	0x3b1407fe	0.0022587772
154	0xbb788212	-0.0037919325
155	0x3d2a555e	0.04158532
156	0xbce31636	-0.027720552
157	0x3c53c0b6	0.012924364
158	0xbc630a8f	-0.013857498
159	0xbd22a874	-0.03971143
160	0xbcffdfe5	-0.03123469
161	0x3d48241d	0.048862565
162	0x3b153c4f	0.0022771542
163	0x3a3b1d95	0.0007137892
164	0xbc19450e	-0.009354843
165	0xbb573cfe	-0.003284275
166	0x3b3849de	0.00281202
167	0x3b25cc8f	0.0025298928
168	0x3c8e4ae5	0.017369697
169	0x395e2ccc	0.00021188258
170	0x3d1f9c2c	0.038967296
171	0xbd4c7362	-0.049914725
172	0xbd2564c9	-0.04037932
173	0x3b31ba7f	0.0027119217
174	0x3a20a929	0.00061287225
175	0x3c289691	0.010289804
176	0xbd2e550d	-0.04256158
177	0x3a548e11	0.0008108328
178	0xba818183	-0.0009880516
179	0x3d095faa	0.033538498
180	0x3c355d22	0.011069568
181	0xbabb696e	-0.0014298388
182	0xbb2683c2	-0.0025408124
183	0x3c86d74c	0.016460083
184	0x3c9c02f7	0.019044382
185	0x3a752886	0.0009352047
186	0x3c8ec9e7	0.017430259
187	0x3d14dd44	0.036343828
188	0xbcf55200	-0.029946327
189	0x39b2de5f	0.00034116485
190	0x3cfa5608	0.030558601
191	0xbd208826	-0.03919234
192	0x3b2bffdf	0.002624504
193	0x3a1e6658	0.0006042472
194	0xba9f7d78	-0.001216813
195	0xbbd16fea	-0.006391515
196	0x3b9178d8	0.0044394545
197	0xbd074b11	-0.033030573
198	0xbcf91e15	-0.030409852
199	0xbbc95dcc	-0.0061452147
200	0xba146758	-0.00056611514
201	0xbd223a39	-0.039606307
202	0xba2a32d4	-0.00064925593
203	0x3cb1ede5	0.021719882
204	0x3d37d935	0.04488488
205	0xb9fdaf0c	-0.0004838634
206	0xbb6bce46	-0.0035981103
207	0x3d0c6433	0.034275245
208	0xbc1b236c	-0.009468894
209	0xba74a80c	-0.0009332902
210	0xbb0fbef4	-0.0021933885
211	0x3a233cb8	0.00062270043
212	0xbb1c09f2	-0.0023809639
213	0xbcc149d7	-0.02359478
214	0xbd04fb75	-0.03246637
215	0x3cde7ebe	0.027160045
216	0x3d0d2a7f	0.034464356
217	0x3ae1a86a	0.0017216329
218	0x3846eaf4	4.7425696e-05
219	0xb9aed775	-0.00033348394
220	0x395ab47f	0.0002085734
221	0xbd388cdc	-0.04505621
222	0x3c098e5e	0.008395759
223	0x3cd962be	0.026536342
224	0xbaf56912	-0.001872333
225	0x3c51569c	0.012776997
226	0xbcd81260	-0.02637595
227	0xbc8cc364	-0.017183013
228	0x3d25fda1	0.040525082
229	0xbd50b8d5	-0.05095752
230	0x3d34237a	0.043979146
231	0x3d430815	0.04761513
232	0x3b2b00d4	0.0026093023
233	0x3b885afb	0.0041612363
234	0x3d57b858	0.05266604
235	0x3d397a10	0.045282423
236	0xbaa791d1	-0.0012784546
237	0x3b1a886a	0.0023579844
238	0x3ca37ad0	0.019956023
239	0xbd3b7efe	-0.045775406
240	0x3d393b07	0.04522231
241	0xbbaf00b0	-0.005340658
242	0xba9bc6cc	-0.0011884808
243	0x394ec71b	0.00019719863
244	0x3c86515b	0.016396215
245	0xbd456cab	-0.048199337
246	0x3d1e4803	0.038642894
247	0x3d56cddb	0.052442413
248	0xbd107f53	-0.035277676
249	0xba734b50	-0.0009280937
250	0x3c0ac506	0.008469826
251	0xbacd83b7	-0.0015679513
252	0xbca31408	-0.019907013
253	0x392f0d27	0.000166942
254	0x39708664	0.00022938248
255	0x39935f86	0.00028109195

convolutions.1.bias f4 [16]
0	0x3d1c2d4f	0.038129147
1	0x3d3a7cf1	0.04552931
2	0xbb9e1fe8	-0.004825581
3	0xbb227886	-0.0024791076
4	0xba9f2e68	-0.0012144567
5	0x3d4596d0	0.04823953
6	0xbd587f93	-0.05285604
7	0xba4ba683	-0.00077686476
8	0xbba03e6a	-0.004890253
9	0xba421d27	-0.0007404857
10	0xbd573b32	-0.052546687
11	0xbd296ff9	-0.04136655
12	0xbc6897bf	-0.014196335
13	0xbd41b48f	-0.047291335
14	0x3c88f2a1	0.016717257
15	0x3d4a17c2	0.049339063

convolutions.2.weight f4 [1, 16, 3, 3]
0	0x3d6c0b6c	0.05762808
1	0x3bc068d5	0.005871872
2	0xbc2caff1	-0.010539995
3	0x3d82f18f	0.0639373
4	0x3c0040a4	0.0078279115
5	0x3cbf9cd5	0.023390213
6	0x3d3bd41c	0.04585658
7	0xbd826712	-0.06367315
8	0x3c863c63	0.016386217
9	0x3bf2af2d	0.0074061365
10	0x3c14a7b5	0.009073188
11	0xbd1ef769	-0.038810167
12	0x3c7a7caa	0.015288511
13	0xbd2575fd	-0.040395726
14	0xbc9e94fb	-0.019358149
15	0x3bc22048	0.0059242584
16	0x3c28493f	0.0102713695
17	0x3d1bf6e8	0.038077265
18	0x3c1028fe	0.008798836
19	0xbcb41507	-0.021982683
20	0x3a8709d0	0.0010302607
21	0xbd81016f	-0.062991016
22	0xbcff8f70	-0.031196326
23	0x3d1b4249	0.03790501
24	0xbd3313c2	-0.043720014
25	0xbbeb7c1e	-0.007186427
26	0x39f2d471	0.00046316118
27	0xba01b3c6	-0.0004947748
28	0x3d3a51e5	0.045488257
29	0x3d3467a9	0.04404417
30	0x3cd2a229	0.02571209
31	0xbb1c58f8	-0.002385674
32	0xbd0f9937	-0.035058226
33	0x3cb858dc	0.022503309
34	0xbcce752c	-0.025202356
35	0xbcea44cd	-0.02859726
36	0x389f5f42	7.599454e-05
37	0xbd247698	-0.040152162
38	0xbd452454	-0.04813035
39	0xbc659b02	-0.0140140075
40	0xbafbc2c6	-0.0019207827
41	0xb9cef92c	-0.0003947703
42	0xbd5b0076	-0.053467236
43	0x3b0e86d9	0.0021747856
44	0x3d515d15	0.05111416
45	0xbd443eea	-0.047911562
46	0xbd7e5899	-0.062096212
47	0xbd8645c1	-0.06556273
48	0x3c927139	0.017876254
49	0x3c47dfa5	0.012199317
50	0xbd3c451a	-0.045964338
51	0x3d24b8bb	0.040215235
52	0x3d1a2b51	0.037638966
53	0xbca3b372	-0.019983027
54	0x3d705bb4	0.058681205
55	0x38aaaa98	8.138007e-05
56	0xbd3c8677	-0.046026673
57	0x3b3f1132	0.0029154536
58	0xbd034276	-0.032045804
59	0x3afc2428	0.001923685
60	0xbc1951ca	-0.009357879
61	0xbd6f5fc4	-0.05844094
62	0x3b75b1a7	0.0037489922
63	0x3d80467d	0.062634446
64	0x3d1a1e23	0.037626397
65	0xbd292ea5	-0.04130425
66	0xbcd0c417	-0.025484128
67	0xbd415460	-0.047199607
68	0xbc8e6fc4	-0.017387278
69	0x3c91ec7a	0.017812956
70	0xbd388730	-0.0450508
71	0x3c632f22	0.013866218
72	0xbcdd7446	-0.027032983
73	0xbcc02e15	-0.023459474
74	0xbbd6244c	-0.0065350886
75	0x3cc9a9e4	0.024617143
76	0x3d5b5d34	0.053555682
77	0x3b4b4a23	0.003101953
78	0xbc73c174	-0.014877666
79	0x3caa1183	0.020760303
80	0xbd039e3f	-0.032133337
81	0x3ccc8141	0.024963977
82	0xbd8184fb	-0.06324192
83	0xbcdd57c9	-0.027019398
84	0xbc862590	-0.016375333
85	0x3d21df8b	0.039519828
86	0x3b894159	0.0041886983
87	0x3b8ba721	0.0042618667
88	0xbb8ff9a5	-0.0043937736
89	0xbd63f303	-0.055651676
90	0x3b6a0bce	0.0035712603
91	0x3c2e81d5	0.010651072
92	0xbb9b6591	-0.0047423323
93	0x3b38e461	0.0028212296
94	0x3c83dda0	0.01609689
95	0xbd44c802	-0.048042305
96	0xba09cd79	-0.0005256753
97	0xbd53f718	-0.05174932
98	0x39a68422	0.00031760434
99	0xbd778b60	-0.060435653
100	0xbd23b4b0	-0.03996724
101	0xbc94cca3	-0.018163985
102	0x3d40c3bc	0.047061667
103	0x39ddcfee	0.00042307324
104	0xbd1f9eae	-0.038969688
105	0x3bce2d41	0.006292016
106	0xbb38d759	-0.002820453
107	0xbd287520	-0.041127324
108	0xbd2f6439	-0.04282019
109	0x3be3ad35	0.006948138
110	0x3d839a9a	0.06425972
111	0x3d7bdcf0	0.06149
112	0xbb884636	-0.0041587604
113	0x3d799dbb	0.06094144
114	0xbace6b46	-0.0015748523
115	0xbd605ee2	-0.054777987
116	0xbcb62335	-0.022233585
117	0x39db0e8d	0.00041781776
118	0x3d1ea475	0.038731057
119	0x3d60a6e6	0.054846667
120	0xbc5f1af4	-0.013617266
121	0x3a9ea999	0.0012104987
122	0xbcd1632e	-0.025559988
123	0xbd487ff5	-0.048950154
124	0xbaf18c8e	-0.0018428729
125	0xbd597db7	-0.053098407
126	0x3d6ca144	0.057770982
127	0xbd06b923	-0.032891404
128	0x3d3ca018	0.046051115
129	0x3aeb76f2	0.0017964526
130	0x3ba99ef5	0.00517642
131	0x3d7834fe	0.060597412
132	0xbc27c061	-0.010238738
133	0xbd67dfda	-0.056609966
134	0x3cd4edb1	0.025992246
135	0xbd6c367c	-0.057669148
136	0x3c0e6f59	0.00869354
137	0x3c5d3d23	0.013503346
138	0x3cd2ba29	0.025723534
139	0xbcd72c48	-0.026266232
140	0x3b8c9f1b	0.004291428
141	0x3d84ef87	0.06490999
142	0x3b8f4c56	0.0043731136
143	0x3d030256	0.03198465
